Model: ParamOrthogonalKoopmanWithInputs(
  (dictionary): TrainableDictionary(
    (encoder): ResNet(
      (layer1): Sequential(
        (0): BasicBlock(
          (fc1): Linear(in_features=4, out_features=16, bias=True)
          (bn1): BatchNorm1d(16, eps=1e-05, momentum=0.1, affine=True, track_running_stats=True)
          (fc2): Linear(in_features=16, out_features=16, bias=True)
          (bn2): BatchNorm1d(16, eps=1e-05, momentum=0.1, affine=True, track_running_stats=True)
          (shortcut): Sequential(
            (0): Linear(in_features=4, out_features=16, bias=True)
            (1): BatchNorm1d(16, eps=1e-05, momentum=0.1, affine=True, track_running_stats=True)
          )
        )
        (1): BasicBlock(
          (fc1): Linear(in_features=16, out_features=16, bias=True)
          (bn1): BatchNorm1d(16, eps=1e-05, momentum=0.1, affine=True, track_running_stats=True)
          (fc2): Linear(in_features=16, out_features=16, bias=True)
          (bn2): BatchNorm1d(16, eps=1e-05, momentum=0.1, affine=True, track_running_stats=True)
          (shortcut): Sequential()
        )
        (2): BasicBlock(
          (fc1): Linear(in_features=16, out_features=16, bias=True)
          (bn1): BatchNorm1d(16, eps=1e-05, momentum=0.1, affine=True, track_running_stats=True)
          (fc2): Linear(in_features=16, out_features=16, bias=True)
          (bn2): BatchNorm1d(16, eps=1e-05, momentum=0.1, affine=True, track_running_stats=True)
          (shortcut): Sequential()
        )
        (3): BasicBlock(
          (fc1): Linear(in_features=16, out_features=16, bias=True)
          (bn1): BatchNorm1d(16, eps=1e-05, momentum=0.1, affine=True, track_running_stats=True)
          (fc2): Linear(in_features=16, out_features=16, bias=True)
          (bn2): BatchNorm1d(16, eps=1e-05, momentum=0.1, affine=True, track_running_stats=True)
          (shortcut): Sequential()
        )
        (4): BasicBlock(
          (fc1): Linear(in_features=16, out_features=16, bias=True)
          (bn1): BatchNorm1d(16, eps=1e-05, momentum=0.1, affine=True, track_running_stats=True)
          (fc2): Linear(in_features=16, out_features=16, bias=True)
          (bn2): BatchNorm1d(16, eps=1e-05, momentum=0.1, affine=True, track_running_stats=True)
          (shortcut): Sequential()
        )
        (5): BasicBlock(
          (fc1): Linear(in_features=16, out_features=16, bias=True)
          (bn1): BatchNorm1d(16, eps=1e-05, momentum=0.1, affine=True, track_running_stats=True)
          (fc2): Linear(in_features=16, out_features=16, bias=True)
          (bn2): BatchNorm1d(16, eps=1e-05, momentum=0.1, affine=True, track_running_stats=True)
          (shortcut): Sequential()
        )
        (6): BasicBlock(
          (fc1): Linear(in_features=16, out_features=16, bias=True)
          (bn1): BatchNorm1d(16, eps=1e-05, momentum=0.1, affine=True, track_running_stats=True)
          (fc2): Linear(in_features=16, out_features=16, bias=True)
          (bn2): BatchNorm1d(16, eps=1e-05, momentum=0.1, affine=True, track_running_stats=True)
          (shortcut): Sequential()
        )
        (7): BasicBlock(
          (fc1): Linear(in_features=16, out_features=16, bias=True)
          (bn1): BatchNorm1d(16, eps=1e-05, momentum=0.1, affine=True, track_running_stats=True)
          (fc2): Linear(in_features=16, out_features=16, bias=True)
          (bn2): BatchNorm1d(16, eps=1e-05, momentum=0.1, affine=True, track_running_stats=True)
          (shortcut): Sequential()
        )
        (8): BasicBlock(
          (fc1): Linear(in_features=16, out_features=16, bias=True)
          (bn1): BatchNorm1d(16, eps=1e-05, momentum=0.1, affine=True, track_running_stats=True)
          (fc2): Linear(in_features=16, out_features=16, bias=True)
          (bn2): BatchNorm1d(16, eps=1e-05, momentum=0.1, affine=True, track_running_stats=True)
          (shortcut): Sequential()
        )
        (9): BasicBlock(
          (fc1): Linear(in_features=16, out_features=16, bias=True)
          (bn1): BatchNorm1d(16, eps=1e-05, momentum=0.1, affine=True, track_running_stats=True)
          (fc2): Linear(in_features=16, out_features=16, bias=True)
          (bn2): BatchNorm1d(16, eps=1e-05, momentum=0.1, affine=True, track_running_stats=True)
          (shortcut): Sequential()
        )
        (10): BasicBlock(
          (fc1): Linear(in_features=16, out_features=16, bias=True)
          (bn1): BatchNorm1d(16, eps=1e-05, momentum=0.1, affine=True, track_running_stats=True)
          (fc2): Linear(in_features=16, out_features=16, bias=True)
          (bn2): BatchNorm1d(16, eps=1e-05, momentum=0.1, affine=True, track_running_stats=True)
          (shortcut): Sequential()
        )
        (11): BasicBlock(
          (fc1): Linear(in_features=16, out_features=16, bias=True)
          (bn1): BatchNorm1d(16, eps=1e-05, momentum=0.1, affine=True, track_running_stats=True)
          (fc2): Linear(in_features=16, out_features=16, bias=True)
          (bn2): BatchNorm1d(16, eps=1e-05, momentum=0.1, affine=True, track_running_stats=True)
          (shortcut): Sequential()
        )
        (12): BasicBlock(
          (fc1): Linear(in_features=16, out_features=16, bias=True)
          (bn1): BatchNorm1d(16, eps=1e-05, momentum=0.1, affine=True, track_running_stats=True)
          (fc2): Linear(in_features=16, out_features=16, bias=True)
          (bn2): BatchNorm1d(16, eps=1e-05, momentum=0.1, affine=True, track_running_stats=True)
          (shortcut): Sequential()
        )
        (13): BasicBlock(
          (fc1): Linear(in_features=16, out_features=16, bias=True)
          (bn1): BatchNorm1d(16, eps=1e-05, momentum=0.1, affine=True, track_running_stats=True)
          (fc2): Linear(in_features=16, out_features=16, bias=True)
          (bn2): BatchNorm1d(16, eps=1e-05, momentum=0.1, affine=True, track_running_stats=True)
          (shortcut): Sequential()
        )
        (14): BasicBlock(
          (fc1): Linear(in_features=16, out_features=16, bias=True)
          (bn1): BatchNorm1d(16, eps=1e-05, momentum=0.1, affine=True, track_running_stats=True)
          (fc2): Linear(in_features=16, out_features=16, bias=True)
          (bn2): BatchNorm1d(16, eps=1e-05, momentum=0.1, affine=True, track_running_stats=True)
          (shortcut): Sequential()
        )
        (15): BasicBlock(
          (fc1): Linear(in_features=16, out_features=16, bias=True)
          (bn1): BatchNorm1d(16, eps=1e-05, momentum=0.1, affine=True, track_running_stats=True)
          (fc2): Linear(in_features=16, out_features=16, bias=True)
          (bn2): BatchNorm1d(16, eps=1e-05, momentum=0.1, affine=True, track_running_stats=True)
          (shortcut): Sequential()
        )
        (16): BasicBlock(
          (fc1): Linear(in_features=16, out_features=16, bias=True)
          (bn1): BatchNorm1d(16, eps=1e-05, momentum=0.1, affine=True, track_running_stats=True)
          (fc2): Linear(in_features=16, out_features=16, bias=True)
          (bn2): BatchNorm1d(16, eps=1e-05, momentum=0.1, affine=True, track_running_stats=True)
          (shortcut): Sequential()
        )
        (17): BasicBlock(
          (fc1): Linear(in_features=16, out_features=16, bias=True)
          (bn1): BatchNorm1d(16, eps=1e-05, momentum=0.1, affine=True, track_running_stats=True)
          (fc2): Linear(in_features=16, out_features=16, bias=True)
          (bn2): BatchNorm1d(16, eps=1e-05, momentum=0.1, affine=True, track_running_stats=True)
          (shortcut): Sequential()
        )
        (18): BasicBlock(
          (fc1): Linear(in_features=16, out_features=16, bias=True)
          (bn1): BatchNorm1d(16, eps=1e-05, momentum=0.1, affine=True, track_running_stats=True)
          (fc2): Linear(in_features=16, out_features=16, bias=True)
          (bn2): BatchNorm1d(16, eps=1e-05, momentum=0.1, affine=True, track_running_stats=True)
          (shortcut): Sequential()
        )
        (19): BasicBlock(
          (fc1): Linear(in_features=16, out_features=16, bias=True)
          (bn1): BatchNorm1d(16, eps=1e-05, momentum=0.1, affine=True, track_running_stats=True)
          (fc2): Linear(in_features=16, out_features=16, bias=True)
          (bn2): BatchNorm1d(16, eps=1e-05, momentum=0.1, affine=True, track_running_stats=True)
          (shortcut): Sequential()
        )
        (20): BasicBlock(
          (fc1): Linear(in_features=16, out_features=16, bias=True)
          (bn1): BatchNorm1d(16, eps=1e-05, momentum=0.1, affine=True, track_running_stats=True)
          (fc2): Linear(in_features=16, out_features=16, bias=True)
          (bn2): BatchNorm1d(16, eps=1e-05, momentum=0.1, affine=True, track_running_stats=True)
          (shortcut): Sequential()
        )
        (21): BasicBlock(
          (fc1): Linear(in_features=16, out_features=16, bias=True)
          (bn1): BatchNorm1d(16, eps=1e-05, momentum=0.1, affine=True, track_running_stats=True)
          (fc2): Linear(in_features=16, out_features=16, bias=True)
          (bn2): BatchNorm1d(16, eps=1e-05, momentum=0.1, affine=True, track_running_stats=True)
          (shortcut): Sequential()
        )
        (22): BasicBlock(
          (fc1): Linear(in_features=16, out_features=16, bias=True)
          (bn1): BatchNorm1d(16, eps=1e-05, momentum=0.1, affine=True, track_running_stats=True)
          (fc2): Linear(in_features=16, out_features=16, bias=True)
          (bn2): BatchNorm1d(16, eps=1e-05, momentum=0.1, affine=True, track_running_stats=True)
          (shortcut): Sequential()
        )
        (23): BasicBlock(
          (fc1): Linear(in_features=16, out_features=16, bias=True)
          (bn1): BatchNorm1d(16, eps=1e-05, momentum=0.1, affine=True, track_running_stats=True)
          (fc2): Linear(in_features=16, out_features=16, bias=True)
          (bn2): BatchNorm1d(16, eps=1e-05, momentum=0.1, affine=True, track_running_stats=True)
          (shortcut): Sequential()
        )
        (24): BasicBlock(
          (fc1): Linear(in_features=16, out_features=16, bias=True)
          (bn1): BatchNorm1d(16, eps=1e-05, momentum=0.1, affine=True, track_running_stats=True)
          (fc2): Linear(in_features=16, out_features=16, bias=True)
          (bn2): BatchNorm1d(16, eps=1e-05, momentum=0.1, affine=True, track_running_stats=True)
          (shortcut): Sequential()
        )
        (25): BasicBlock(
          (fc1): Linear(in_features=16, out_features=16, bias=True)
          (bn1): BatchNorm1d(16, eps=1e-05, momentum=0.1, affine=True, track_running_stats=True)
          (fc2): Linear(in_features=16, out_features=16, bias=True)
          (bn2): BatchNorm1d(16, eps=1e-05, momentum=0.1, affine=True, track_running_stats=True)
          (shortcut): Sequential()
        )
        (26): BasicBlock(
          (fc1): Linear(in_features=16, out_features=16, bias=True)
          (bn1): BatchNorm1d(16, eps=1e-05, momentum=0.1, affine=True, track_running_stats=True)
          (fc2): Linear(in_features=16, out_features=16, bias=True)
          (bn2): BatchNorm1d(16, eps=1e-05, momentum=0.1, affine=True, track_running_stats=True)
          (shortcut): Sequential()
        )
        (27): BasicBlock(
          (fc1): Linear(in_features=16, out_features=16, bias=True)
          (bn1): BatchNorm1d(16, eps=1e-05, momentum=0.1, affine=True, track_running_stats=True)
          (fc2): Linear(in_features=16, out_features=16, bias=True)
          (bn2): BatchNorm1d(16, eps=1e-05, momentum=0.1, affine=True, track_running_stats=True)
          (shortcut): Sequential()
        )
        (28): BasicBlock(
          (fc1): Linear(in_features=16, out_features=16, bias=True)
          (bn1): BatchNorm1d(16, eps=1e-05, momentum=0.1, affine=True, track_running_stats=True)
          (fc2): Linear(in_features=16, out_features=16, bias=True)
          (bn2): BatchNorm1d(16, eps=1e-05, momentum=0.1, affine=True, track_running_stats=True)
          (shortcut): Sequential()
        )
        (29): BasicBlock(
          (fc1): Linear(in_features=16, out_features=16, bias=True)
          (bn1): BatchNorm1d(16, eps=1e-05, momentum=0.1, affine=True, track_running_stats=True)
          (fc2): Linear(in_features=16, out_features=16, bias=True)
          (bn2): BatchNorm1d(16, eps=1e-05, momentum=0.1, affine=True, track_running_stats=True)
          (shortcut): Sequential()
        )
        (30): BasicBlock(
          (fc1): Linear(in_features=16, out_features=16, bias=True)
          (bn1): BatchNorm1d(16, eps=1e-05, momentum=0.1, affine=True, track_running_stats=True)
          (fc2): Linear(in_features=16, out_features=16, bias=True)
          (bn2): BatchNorm1d(16, eps=1e-05, momentum=0.1, affine=True, track_running_stats=True)
          (shortcut): Sequential()
        )
        (31): BasicBlock(
          (fc1): Linear(in_features=16, out_features=16, bias=True)
          (bn1): BatchNorm1d(16, eps=1e-05, momentum=0.1, affine=True, track_running_stats=True)
          (fc2): Linear(in_features=16, out_features=16, bias=True)
          (bn2): BatchNorm1d(16, eps=1e-05, momentum=0.1, affine=True, track_running_stats=True)
          (shortcut): Sequential()
        )
        (32): BasicBlock(
          (fc1): Linear(in_features=16, out_features=16, bias=True)
          (bn1): BatchNorm1d(16, eps=1e-05, momentum=0.1, affine=True, track_running_stats=True)
          (fc2): Linear(in_features=16, out_features=16, bias=True)
          (bn2): BatchNorm1d(16, eps=1e-05, momentum=0.1, affine=True, track_running_stats=True)
          (shortcut): Sequential()
        )
        (33): BasicBlock(
          (fc1): Linear(in_features=16, out_features=16, bias=True)
          (bn1): BatchNorm1d(16, eps=1e-05, momentum=0.1, affine=True, track_running_stats=True)
          (fc2): Linear(in_features=16, out_features=16, bias=True)
          (bn2): BatchNorm1d(16, eps=1e-05, momentum=0.1, affine=True, track_running_stats=True)
          (shortcut): Sequential()
        )
        (34): BasicBlock(
          (fc1): Linear(in_features=16, out_features=16, bias=True)
          (bn1): BatchNorm1d(16, eps=1e-05, momentum=0.1, affine=True, track_running_stats=True)
          (fc2): Linear(in_features=16, out_features=16, bias=True)
          (bn2): BatchNorm1d(16, eps=1e-05, momentum=0.1, affine=True, track_running_stats=True)
          (shortcut): Sequential()
        )
        (35): BasicBlock(
          (fc1): Linear(in_features=16, out_features=16, bias=True)
          (bn1): BatchNorm1d(16, eps=1e-05, momentum=0.1, affine=True, track_running_stats=True)
          (fc2): Linear(in_features=16, out_features=16, bias=True)
          (bn2): BatchNorm1d(16, eps=1e-05, momentum=0.1, affine=True, track_running_stats=True)
          (shortcut): Sequential()
        )
        (36): BasicBlock(
          (fc1): Linear(in_features=16, out_features=16, bias=True)
          (bn1): BatchNorm1d(16, eps=1e-05, momentum=0.1, affine=True, track_running_stats=True)
          (fc2): Linear(in_features=16, out_features=16, bias=True)
          (bn2): BatchNorm1d(16, eps=1e-05, momentum=0.1, affine=True, track_running_stats=True)
          (shortcut): Sequential()
        )
        (37): BasicBlock(
          (fc1): Linear(in_features=16, out_features=16, bias=True)
          (bn1): BatchNorm1d(16, eps=1e-05, momentum=0.1, affine=True, track_running_stats=True)
          (fc2): Linear(in_features=16, out_features=16, bias=True)
          (bn2): BatchNorm1d(16, eps=1e-05, momentum=0.1, affine=True, track_running_stats=True)
          (shortcut): Sequential()
        )
        (38): BasicBlock(
          (fc1): Linear(in_features=16, out_features=16, bias=True)
          (bn1): BatchNorm1d(16, eps=1e-05, momentum=0.1, affine=True, track_running_stats=True)
          (fc2): Linear(in_features=16, out_features=16, bias=True)
          (bn2): BatchNorm1d(16, eps=1e-05, momentum=0.1, affine=True, track_running_stats=True)
          (shortcut): Sequential()
        )
        (39): BasicBlock(
          (fc1): Linear(in_features=16, out_features=16, bias=True)
          (bn1): BatchNorm1d(16, eps=1e-05, momentum=0.1, affine=True, track_running_stats=True)
          (fc2): Linear(in_features=16, out_features=16, bias=True)
          (bn2): BatchNorm1d(16, eps=1e-05, momentum=0.1, affine=True, track_running_stats=True)
          (shortcut): Sequential()
        )
        (40): BasicBlock(
          (fc1): Linear(in_features=16, out_features=16, bias=True)
          (bn1): BatchNorm1d(16, eps=1e-05, momentum=0.1, affine=True, track_running_stats=True)
          (fc2): Linear(in_features=16, out_features=16, bias=True)
          (bn2): BatchNorm1d(16, eps=1e-05, momentum=0.1, affine=True, track_running_stats=True)
          (shortcut): Sequential()
        )
        (41): BasicBlock(
          (fc1): Linear(in_features=16, out_features=16, bias=True)
          (bn1): BatchNorm1d(16, eps=1e-05, momentum=0.1, affine=True, track_running_stats=True)
          (fc2): Linear(in_features=16, out_features=16, bias=True)
          (bn2): BatchNorm1d(16, eps=1e-05, momentum=0.1, affine=True, track_running_stats=True)
          (shortcut): Sequential()
        )
        (42): BasicBlock(
          (fc1): Linear(in_features=16, out_features=16, bias=True)
          (bn1): BatchNorm1d(16, eps=1e-05, momentum=0.1, affine=True, track_running_stats=True)
          (fc2): Linear(in_features=16, out_features=16, bias=True)
          (bn2): BatchNorm1d(16, eps=1e-05, momentum=0.1, affine=True, track_running_stats=True)
          (shortcut): Sequential()
        )
        (43): BasicBlock(
          (fc1): Linear(in_features=16, out_features=16, bias=True)
          (bn1): BatchNorm1d(16, eps=1e-05, momentum=0.1, affine=True, track_running_stats=True)
          (fc2): Linear(in_features=16, out_features=16, bias=True)
          (bn2): BatchNorm1d(16, eps=1e-05, momentum=0.1, affine=True, track_running_stats=True)
          (shortcut): Sequential()
        )
        (44): BasicBlock(
          (fc1): Linear(in_features=16, out_features=16, bias=True)
          (bn1): BatchNorm1d(16, eps=1e-05, momentum=0.1, affine=True, track_running_stats=True)
          (fc2): Linear(in_features=16, out_features=16, bias=True)
          (bn2): BatchNorm1d(16, eps=1e-05, momentum=0.1, affine=True, track_running_stats=True)
          (shortcut): Sequential()
        )
        (45): BasicBlock(
          (fc1): Linear(in_features=16, out_features=16, bias=True)
          (bn1): BatchNorm1d(16, eps=1e-05, momentum=0.1, affine=True, track_running_stats=True)
          (fc2): Linear(in_features=16, out_features=16, bias=True)
          (bn2): BatchNorm1d(16, eps=1e-05, momentum=0.1, affine=True, track_running_stats=True)
          (shortcut): Sequential()
        )
        (46): BasicBlock(
          (fc1): Linear(in_features=16, out_features=16, bias=True)
          (bn1): BatchNorm1d(16, eps=1e-05, momentum=0.1, affine=True, track_running_stats=True)
          (fc2): Linear(in_features=16, out_features=16, bias=True)
          (bn2): BatchNorm1d(16, eps=1e-05, momentum=0.1, affine=True, track_running_stats=True)
          (shortcut): Sequential()
        )
        (47): BasicBlock(
          (fc1): Linear(in_features=16, out_features=16, bias=True)
          (bn1): BatchNorm1d(16, eps=1e-05, momentum=0.1, affine=True, track_running_stats=True)
          (fc2): Linear(in_features=16, out_features=16, bias=True)
          (bn2): BatchNorm1d(16, eps=1e-05, momentum=0.1, affine=True, track_running_stats=True)
          (shortcut): Sequential()
        )
        (48): BasicBlock(
          (fc1): Linear(in_features=16, out_features=16, bias=True)
          (bn1): BatchNorm1d(16, eps=1e-05, momentum=0.1, affine=True, track_running_stats=True)
          (fc2): Linear(in_features=16, out_features=16, bias=True)
          (bn2): BatchNorm1d(16, eps=1e-05, momentum=0.1, affine=True, track_running_stats=True)
          (shortcut): Sequential()
        )
        (49): BasicBlock(
          (fc1): Linear(in_features=16, out_features=16, bias=True)
          (bn1): BatchNorm1d(16, eps=1e-05, momentum=0.1, affine=True, track_running_stats=True)
          (fc2): Linear(in_features=16, out_features=16, bias=True)
          (bn2): BatchNorm1d(16, eps=1e-05, momentum=0.1, affine=True, track_running_stats=True)
          (shortcut): Sequential()
        )
        (50): BasicBlock(
          (fc1): Linear(in_features=16, out_features=16, bias=True)
          (bn1): BatchNorm1d(16, eps=1e-05, momentum=0.1, affine=True, track_running_stats=True)
          (fc2): Linear(in_features=16, out_features=16, bias=True)
          (bn2): BatchNorm1d(16, eps=1e-05, momentum=0.1, affine=True, track_running_stats=True)
          (shortcut): Sequential()
        )
        (51): BasicBlock(
          (fc1): Linear(in_features=16, out_features=16, bias=True)
          (bn1): BatchNorm1d(16, eps=1e-05, momentum=0.1, affine=True, track_running_stats=True)
          (fc2): Linear(in_features=16, out_features=16, bias=True)
          (bn2): BatchNorm1d(16, eps=1e-05, momentum=0.1, affine=True, track_running_stats=True)
          (shortcut): Sequential()
        )
        (52): BasicBlock(
          (fc1): Linear(in_features=16, out_features=16, bias=True)
          (bn1): BatchNorm1d(16, eps=1e-05, momentum=0.1, affine=True, track_running_stats=True)
          (fc2): Linear(in_features=16, out_features=16, bias=True)
          (bn2): BatchNorm1d(16, eps=1e-05, momentum=0.1, affine=True, track_running_stats=True)
          (shortcut): Sequential()
        )
        (53): BasicBlock(
          (fc1): Linear(in_features=16, out_features=16, bias=True)
          (bn1): BatchNorm1d(16, eps=1e-05, momentum=0.1, affine=True, track_running_stats=True)
          (fc2): Linear(in_features=16, out_features=16, bias=True)
          (bn2): BatchNorm1d(16, eps=1e-05, momentum=0.1, affine=True, track_running_stats=True)
          (shortcut): Sequential()
        )
        (54): BasicBlock(
          (fc1): Linear(in_features=16, out_features=16, bias=True)
          (bn1): BatchNorm1d(16, eps=1e-05, momentum=0.1, affine=True, track_running_stats=True)
          (fc2): Linear(in_features=16, out_features=16, bias=True)
          (bn2): BatchNorm1d(16, eps=1e-05, momentum=0.1, affine=True, track_running_stats=True)
          (shortcut): Sequential()
        )
        (55): BasicBlock(
          (fc1): Linear(in_features=16, out_features=16, bias=True)
          (bn1): BatchNorm1d(16, eps=1e-05, momentum=0.1, affine=True, track_running_stats=True)
          (fc2): Linear(in_features=16, out_features=16, bias=True)
          (bn2): BatchNorm1d(16, eps=1e-05, momentum=0.1, affine=True, track_running_stats=True)
          (shortcut): Sequential()
        )
        (56): BasicBlock(
          (fc1): Linear(in_features=16, out_features=16, bias=True)
          (bn1): BatchNorm1d(16, eps=1e-05, momentum=0.1, affine=True, track_running_stats=True)
          (fc2): Linear(in_features=16, out_features=16, bias=True)
          (bn2): BatchNorm1d(16, eps=1e-05, momentum=0.1, affine=True, track_running_stats=True)
          (shortcut): Sequential()
        )
        (57): BasicBlock(
          (fc1): Linear(in_features=16, out_features=16, bias=True)
          (bn1): BatchNorm1d(16, eps=1e-05, momentum=0.1, affine=True, track_running_stats=True)
          (fc2): Linear(in_features=16, out_features=16, bias=True)
          (bn2): BatchNorm1d(16, eps=1e-05, momentum=0.1, affine=True, track_running_stats=True)
          (shortcut): Sequential()
        )
        (58): BasicBlock(
          (fc1): Linear(in_features=16, out_features=16, bias=True)
          (bn1): BatchNorm1d(16, eps=1e-05, momentum=0.1, affine=True, track_running_stats=True)
          (fc2): Linear(in_features=16, out_features=16, bias=True)
          (bn2): BatchNorm1d(16, eps=1e-05, momentum=0.1, affine=True, track_running_stats=True)
          (shortcut): Sequential()
        )
        (59): BasicBlock(
          (fc1): Linear(in_features=16, out_features=16, bias=True)
          (bn1): BatchNorm1d(16, eps=1e-05, momentum=0.1, affine=True, track_running_stats=True)
          (fc2): Linear(in_features=16, out_features=16, bias=True)
          (bn2): BatchNorm1d(16, eps=1e-05, momentum=0.1, affine=True, track_running_stats=True)
          (shortcut): Sequential()
        )
        (60): BasicBlock(
          (fc1): Linear(in_features=16, out_features=16, bias=True)
          (bn1): BatchNorm1d(16, eps=1e-05, momentum=0.1, affine=True, track_running_stats=True)
          (fc2): Linear(in_features=16, out_features=16, bias=True)
          (bn2): BatchNorm1d(16, eps=1e-05, momentum=0.1, affine=True, track_running_stats=True)
          (shortcut): Sequential()
        )
        (61): BasicBlock(
          (fc1): Linear(in_features=16, out_features=16, bias=True)
          (bn1): BatchNorm1d(16, eps=1e-05, momentum=0.1, affine=True, track_running_stats=True)
          (fc2): Linear(in_features=16, out_features=16, bias=True)
          (bn2): BatchNorm1d(16, eps=1e-05, momentum=0.1, affine=True, track_running_stats=True)
          (shortcut): Sequential()
        )
        (62): BasicBlock(
          (fc1): Linear(in_features=16, out_features=16, bias=True)
          (bn1): BatchNorm1d(16, eps=1e-05, momentum=0.1, affine=True, track_running_stats=True)
          (fc2): Linear(in_features=16, out_features=16, bias=True)
          (bn2): BatchNorm1d(16, eps=1e-05, momentum=0.1, affine=True, track_running_stats=True)
          (shortcut): Sequential()
        )
        (63): BasicBlock(
          (fc1): Linear(in_features=16, out_features=16, bias=True)
          (bn1): BatchNorm1d(16, eps=1e-05, momentum=0.1, affine=True, track_running_stats=True)
          (fc2): Linear(in_features=16, out_features=16, bias=True)
          (bn2): BatchNorm1d(16, eps=1e-05, momentum=0.1, affine=True, track_running_stats=True)
          (shortcut): Sequential()
        )
      )
      (layer2): Sequential(
        (0): BasicBlock(
          (fc1): Linear(in_features=16, out_features=32, bias=True)
          (bn1): BatchNorm1d(32, eps=1e-05, momentum=0.1, affine=True, track_running_stats=True)
          (fc2): Linear(in_features=32, out_features=32, bias=True)
          (bn2): BatchNorm1d(32, eps=1e-05, momentum=0.1, affine=True, track_running_stats=True)
          (shortcut): Sequential(
            (0): Linear(in_features=16, out_features=32, bias=True)
            (1): BatchNorm1d(32, eps=1e-05, momentum=0.1, affine=True, track_running_stats=True)
          )
        )
        (1): BasicBlock(
          (fc1): Linear(in_features=32, out_features=32, bias=True)
          (bn1): BatchNorm1d(32, eps=1e-05, momentum=0.1, affine=True, track_running_stats=True)
          (fc2): Linear(in_features=32, out_features=32, bias=True)
          (bn2): BatchNorm1d(32, eps=1e-05, momentum=0.1, affine=True, track_running_stats=True)
          (shortcut): Sequential()
        )
        (2): BasicBlock(
          (fc1): Linear(in_features=32, out_features=32, bias=True)
          (bn1): BatchNorm1d(32, eps=1e-05, momentum=0.1, affine=True, track_running_stats=True)
          (fc2): Linear(in_features=32, out_features=32, bias=True)
          (bn2): BatchNorm1d(32, eps=1e-05, momentum=0.1, affine=True, track_running_stats=True)
          (shortcut): Sequential()
        )
        (3): BasicBlock(
          (fc1): Linear(in_features=32, out_features=32, bias=True)
          (bn1): BatchNorm1d(32, eps=1e-05, momentum=0.1, affine=True, track_running_stats=True)
          (fc2): Linear(in_features=32, out_features=32, bias=True)
          (bn2): BatchNorm1d(32, eps=1e-05, momentum=0.1, affine=True, track_running_stats=True)
          (shortcut): Sequential()
        )
        (4): BasicBlock(
          (fc1): Linear(in_features=32, out_features=32, bias=True)
          (bn1): BatchNorm1d(32, eps=1e-05, momentum=0.1, affine=True, track_running_stats=True)
          (fc2): Linear(in_features=32, out_features=32, bias=True)
          (bn2): BatchNorm1d(32, eps=1e-05, momentum=0.1, affine=True, track_running_stats=True)
          (shortcut): Sequential()
        )
        (5): BasicBlock(
          (fc1): Linear(in_features=32, out_features=32, bias=True)
          (bn1): BatchNorm1d(32, eps=1e-05, momentum=0.1, affine=True, track_running_stats=True)
          (fc2): Linear(in_features=32, out_features=32, bias=True)
          (bn2): BatchNorm1d(32, eps=1e-05, momentum=0.1, affine=True, track_running_stats=True)
          (shortcut): Sequential()
        )
        (6): BasicBlock(
          (fc1): Linear(in_features=32, out_features=32, bias=True)
          (bn1): BatchNorm1d(32, eps=1e-05, momentum=0.1, affine=True, track_running_stats=True)
          (fc2): Linear(in_features=32, out_features=32, bias=True)
          (bn2): BatchNorm1d(32, eps=1e-05, momentum=0.1, affine=True, track_running_stats=True)
          (shortcut): Sequential()
        )
        (7): BasicBlock(
          (fc1): Linear(in_features=32, out_features=32, bias=True)
          (bn1): BatchNorm1d(32, eps=1e-05, momentum=0.1, affine=True, track_running_stats=True)
          (fc2): Linear(in_features=32, out_features=32, bias=True)
          (bn2): BatchNorm1d(32, eps=1e-05, momentum=0.1, affine=True, track_running_stats=True)
          (shortcut): Sequential()
        )
        (8): BasicBlock(
          (fc1): Linear(in_features=32, out_features=32, bias=True)
          (bn1): BatchNorm1d(32, eps=1e-05, momentum=0.1, affine=True, track_running_stats=True)
          (fc2): Linear(in_features=32, out_features=32, bias=True)
          (bn2): BatchNorm1d(32, eps=1e-05, momentum=0.1, affine=True, track_running_stats=True)
          (shortcut): Sequential()
        )
        (9): BasicBlock(
          (fc1): Linear(in_features=32, out_features=32, bias=True)
          (bn1): BatchNorm1d(32, eps=1e-05, momentum=0.1, affine=True, track_running_stats=True)
          (fc2): Linear(in_features=32, out_features=32, bias=True)
          (bn2): BatchNorm1d(32, eps=1e-05, momentum=0.1, affine=True, track_running_stats=True)
          (shortcut): Sequential()
        )
        (10): BasicBlock(
          (fc1): Linear(in_features=32, out_features=32, bias=True)
          (bn1): BatchNorm1d(32, eps=1e-05, momentum=0.1, affine=True, track_running_stats=True)
          (fc2): Linear(in_features=32, out_features=32, bias=True)
          (bn2): BatchNorm1d(32, eps=1e-05, momentum=0.1, affine=True, track_running_stats=True)
          (shortcut): Sequential()
        )
        (11): BasicBlock(
          (fc1): Linear(in_features=32, out_features=32, bias=True)
          (bn1): BatchNorm1d(32, eps=1e-05, momentum=0.1, affine=True, track_running_stats=True)
          (fc2): Linear(in_features=32, out_features=32, bias=True)
          (bn2): BatchNorm1d(32, eps=1e-05, momentum=0.1, affine=True, track_running_stats=True)
          (shortcut): Sequential()
        )
        (12): BasicBlock(
          (fc1): Linear(in_features=32, out_features=32, bias=True)
          (bn1): BatchNorm1d(32, eps=1e-05, momentum=0.1, affine=True, track_running_stats=True)
          (fc2): Linear(in_features=32, out_features=32, bias=True)
          (bn2): BatchNorm1d(32, eps=1e-05, momentum=0.1, affine=True, track_running_stats=True)
          (shortcut): Sequential()
        )
        (13): BasicBlock(
          (fc1): Linear(in_features=32, out_features=32, bias=True)
          (bn1): BatchNorm1d(32, eps=1e-05, momentum=0.1, affine=True, track_running_stats=True)
          (fc2): Linear(in_features=32, out_features=32, bias=True)
          (bn2): BatchNorm1d(32, eps=1e-05, momentum=0.1, affine=True, track_running_stats=True)
          (shortcut): Sequential()
        )
        (14): BasicBlock(
          (fc1): Linear(in_features=32, out_features=32, bias=True)
          (bn1): BatchNorm1d(32, eps=1e-05, momentum=0.1, affine=True, track_running_stats=True)
          (fc2): Linear(in_features=32, out_features=32, bias=True)
          (bn2): BatchNorm1d(32, eps=1e-05, momentum=0.1, affine=True, track_running_stats=True)
          (shortcut): Sequential()
        )
        (15): BasicBlock(
          (fc1): Linear(in_features=32, out_features=32, bias=True)
          (bn1): BatchNorm1d(32, eps=1e-05, momentum=0.1, affine=True, track_running_stats=True)
          (fc2): Linear(in_features=32, out_features=32, bias=True)
          (bn2): BatchNorm1d(32, eps=1e-05, momentum=0.1, affine=True, track_running_stats=True)
          (shortcut): Sequential()
        )
        (16): BasicBlock(
          (fc1): Linear(in_features=32, out_features=32, bias=True)
          (bn1): BatchNorm1d(32, eps=1e-05, momentum=0.1, affine=True, track_running_stats=True)
          (fc2): Linear(in_features=32, out_features=32, bias=True)
          (bn2): BatchNorm1d(32, eps=1e-05, momentum=0.1, affine=True, track_running_stats=True)
          (shortcut): Sequential()
        )
        (17): BasicBlock(
          (fc1): Linear(in_features=32, out_features=32, bias=True)
          (bn1): BatchNorm1d(32, eps=1e-05, momentum=0.1, affine=True, track_running_stats=True)
          (fc2): Linear(in_features=32, out_features=32, bias=True)
          (bn2): BatchNorm1d(32, eps=1e-05, momentum=0.1, affine=True, track_running_stats=True)
          (shortcut): Sequential()
        )
        (18): BasicBlock(
          (fc1): Linear(in_features=32, out_features=32, bias=True)
          (bn1): BatchNorm1d(32, eps=1e-05, momentum=0.1, affine=True, track_running_stats=True)
          (fc2): Linear(in_features=32, out_features=32, bias=True)
          (bn2): BatchNorm1d(32, eps=1e-05, momentum=0.1, affine=True, track_running_stats=True)
          (shortcut): Sequential()
        )
        (19): BasicBlock(
          (fc1): Linear(in_features=32, out_features=32, bias=True)
          (bn1): BatchNorm1d(32, eps=1e-05, momentum=0.1, affine=True, track_running_stats=True)
          (fc2): Linear(in_features=32, out_features=32, bias=True)
          (bn2): BatchNorm1d(32, eps=1e-05, momentum=0.1, affine=True, track_running_stats=True)
          (shortcut): Sequential()
        )
        (20): BasicBlock(
          (fc1): Linear(in_features=32, out_features=32, bias=True)
          (bn1): BatchNorm1d(32, eps=1e-05, momentum=0.1, affine=True, track_running_stats=True)
          (fc2): Linear(in_features=32, out_features=32, bias=True)
          (bn2): BatchNorm1d(32, eps=1e-05, momentum=0.1, affine=True, track_running_stats=True)
          (shortcut): Sequential()
        )
        (21): BasicBlock(
          (fc1): Linear(in_features=32, out_features=32, bias=True)
          (bn1): BatchNorm1d(32, eps=1e-05, momentum=0.1, affine=True, track_running_stats=True)
          (fc2): Linear(in_features=32, out_features=32, bias=True)
          (bn2): BatchNorm1d(32, eps=1e-05, momentum=0.1, affine=True, track_running_stats=True)
          (shortcut): Sequential()
        )
        (22): BasicBlock(
          (fc1): Linear(in_features=32, out_features=32, bias=True)
          (bn1): BatchNorm1d(32, eps=1e-05, momentum=0.1, affine=True, track_running_stats=True)
          (fc2): Linear(in_features=32, out_features=32, bias=True)
          (bn2): BatchNorm1d(32, eps=1e-05, momentum=0.1, affine=True, track_running_stats=True)
          (shortcut): Sequential()
        )
        (23): BasicBlock(
          (fc1): Linear(in_features=32, out_features=32, bias=True)
          (bn1): BatchNorm1d(32, eps=1e-05, momentum=0.1, affine=True, track_running_stats=True)
          (fc2): Linear(in_features=32, out_features=32, bias=True)
          (bn2): BatchNorm1d(32, eps=1e-05, momentum=0.1, affine=True, track_running_stats=True)
          (shortcut): Sequential()
        )
        (24): BasicBlock(
          (fc1): Linear(in_features=32, out_features=32, bias=True)
          (bn1): BatchNorm1d(32, eps=1e-05, momentum=0.1, affine=True, track_running_stats=True)
          (fc2): Linear(in_features=32, out_features=32, bias=True)
          (bn2): BatchNorm1d(32, eps=1e-05, momentum=0.1, affine=True, track_running_stats=True)
          (shortcut): Sequential()
        )
        (25): BasicBlock(
          (fc1): Linear(in_features=32, out_features=32, bias=True)
          (bn1): BatchNorm1d(32, eps=1e-05, momentum=0.1, affine=True, track_running_stats=True)
          (fc2): Linear(in_features=32, out_features=32, bias=True)
          (bn2): BatchNorm1d(32, eps=1e-05, momentum=0.1, affine=True, track_running_stats=True)
          (shortcut): Sequential()
        )
        (26): BasicBlock(
          (fc1): Linear(in_features=32, out_features=32, bias=True)
          (bn1): BatchNorm1d(32, eps=1e-05, momentum=0.1, affine=True, track_running_stats=True)
          (fc2): Linear(in_features=32, out_features=32, bias=True)
          (bn2): BatchNorm1d(32, eps=1e-05, momentum=0.1, affine=True, track_running_stats=True)
          (shortcut): Sequential()
        )
        (27): BasicBlock(
          (fc1): Linear(in_features=32, out_features=32, bias=True)
          (bn1): BatchNorm1d(32, eps=1e-05, momentum=0.1, affine=True, track_running_stats=True)
          (fc2): Linear(in_features=32, out_features=32, bias=True)
          (bn2): BatchNorm1d(32, eps=1e-05, momentum=0.1, affine=True, track_running_stats=True)
          (shortcut): Sequential()
        )
        (28): BasicBlock(
          (fc1): Linear(in_features=32, out_features=32, bias=True)
          (bn1): BatchNorm1d(32, eps=1e-05, momentum=0.1, affine=True, track_running_stats=True)
          (fc2): Linear(in_features=32, out_features=32, bias=True)
          (bn2): BatchNorm1d(32, eps=1e-05, momentum=0.1, affine=True, track_running_stats=True)
          (shortcut): Sequential()
        )
        (29): BasicBlock(
          (fc1): Linear(in_features=32, out_features=32, bias=True)
          (bn1): BatchNorm1d(32, eps=1e-05, momentum=0.1, affine=True, track_running_stats=True)
          (fc2): Linear(in_features=32, out_features=32, bias=True)
          (bn2): BatchNorm1d(32, eps=1e-05, momentum=0.1, affine=True, track_running_stats=True)
          (shortcut): Sequential()
        )
        (30): BasicBlock(
          (fc1): Linear(in_features=32, out_features=32, bias=True)
          (bn1): BatchNorm1d(32, eps=1e-05, momentum=0.1, affine=True, track_running_stats=True)
          (fc2): Linear(in_features=32, out_features=32, bias=True)
          (bn2): BatchNorm1d(32, eps=1e-05, momentum=0.1, affine=True, track_running_stats=True)
          (shortcut): Sequential()
        )
        (31): BasicBlock(
          (fc1): Linear(in_features=32, out_features=32, bias=True)
          (bn1): BatchNorm1d(32, eps=1e-05, momentum=0.1, affine=True, track_running_stats=True)
          (fc2): Linear(in_features=32, out_features=32, bias=True)
          (bn2): BatchNorm1d(32, eps=1e-05, momentum=0.1, affine=True, track_running_stats=True)
          (shortcut): Sequential()
        )
        (32): BasicBlock(
          (fc1): Linear(in_features=32, out_features=32, bias=True)
          (bn1): BatchNorm1d(32, eps=1e-05, momentum=0.1, affine=True, track_running_stats=True)
          (fc2): Linear(in_features=32, out_features=32, bias=True)
          (bn2): BatchNorm1d(32, eps=1e-05, momentum=0.1, affine=True, track_running_stats=True)
          (shortcut): Sequential()
        )
        (33): BasicBlock(
          (fc1): Linear(in_features=32, out_features=32, bias=True)
          (bn1): BatchNorm1d(32, eps=1e-05, momentum=0.1, affine=True, track_running_stats=True)
          (fc2): Linear(in_features=32, out_features=32, bias=True)
          (bn2): BatchNorm1d(32, eps=1e-05, momentum=0.1, affine=True, track_running_stats=True)
          (shortcut): Sequential()
        )
        (34): BasicBlock(
          (fc1): Linear(in_features=32, out_features=32, bias=True)
          (bn1): BatchNorm1d(32, eps=1e-05, momentum=0.1, affine=True, track_running_stats=True)
          (fc2): Linear(in_features=32, out_features=32, bias=True)
          (bn2): BatchNorm1d(32, eps=1e-05, momentum=0.1, affine=True, track_running_stats=True)
          (shortcut): Sequential()
        )
        (35): BasicBlock(
          (fc1): Linear(in_features=32, out_features=32, bias=True)
          (bn1): BatchNorm1d(32, eps=1e-05, momentum=0.1, affine=True, track_running_stats=True)
          (fc2): Linear(in_features=32, out_features=32, bias=True)
          (bn2): BatchNorm1d(32, eps=1e-05, momentum=0.1, affine=True, track_running_stats=True)
          (shortcut): Sequential()
        )
        (36): BasicBlock(
          (fc1): Linear(in_features=32, out_features=32, bias=True)
          (bn1): BatchNorm1d(32, eps=1e-05, momentum=0.1, affine=True, track_running_stats=True)
          (fc2): Linear(in_features=32, out_features=32, bias=True)
          (bn2): BatchNorm1d(32, eps=1e-05, momentum=0.1, affine=True, track_running_stats=True)
          (shortcut): Sequential()
        )
        (37): BasicBlock(
          (fc1): Linear(in_features=32, out_features=32, bias=True)
          (bn1): BatchNorm1d(32, eps=1e-05, momentum=0.1, affine=True, track_running_stats=True)
          (fc2): Linear(in_features=32, out_features=32, bias=True)
          (bn2): BatchNorm1d(32, eps=1e-05, momentum=0.1, affine=True, track_running_stats=True)
          (shortcut): Sequential()
        )
        (38): BasicBlock(
          (fc1): Linear(in_features=32, out_features=32, bias=True)
          (bn1): BatchNorm1d(32, eps=1e-05, momentum=0.1, affine=True, track_running_stats=True)
          (fc2): Linear(in_features=32, out_features=32, bias=True)
          (bn2): BatchNorm1d(32, eps=1e-05, momentum=0.1, affine=True, track_running_stats=True)
          (shortcut): Sequential()
        )
        (39): BasicBlock(
          (fc1): Linear(in_features=32, out_features=32, bias=True)
          (bn1): BatchNorm1d(32, eps=1e-05, momentum=0.1, affine=True, track_running_stats=True)
          (fc2): Linear(in_features=32, out_features=32, bias=True)
          (bn2): BatchNorm1d(32, eps=1e-05, momentum=0.1, affine=True, track_running_stats=True)
          (shortcut): Sequential()
        )
        (40): BasicBlock(
          (fc1): Linear(in_features=32, out_features=32, bias=True)
          (bn1): BatchNorm1d(32, eps=1e-05, momentum=0.1, affine=True, track_running_stats=True)
          (fc2): Linear(in_features=32, out_features=32, bias=True)
          (bn2): BatchNorm1d(32, eps=1e-05, momentum=0.1, affine=True, track_running_stats=True)
          (shortcut): Sequential()
        )
        (41): BasicBlock(
          (fc1): Linear(in_features=32, out_features=32, bias=True)
          (bn1): BatchNorm1d(32, eps=1e-05, momentum=0.1, affine=True, track_running_stats=True)
          (fc2): Linear(in_features=32, out_features=32, bias=True)
          (bn2): BatchNorm1d(32, eps=1e-05, momentum=0.1, affine=True, track_running_stats=True)
          (shortcut): Sequential()
        )
        (42): BasicBlock(
          (fc1): Linear(in_features=32, out_features=32, bias=True)
          (bn1): BatchNorm1d(32, eps=1e-05, momentum=0.1, affine=True, track_running_stats=True)
          (fc2): Linear(in_features=32, out_features=32, bias=True)
          (bn2): BatchNorm1d(32, eps=1e-05, momentum=0.1, affine=True, track_running_stats=True)
          (shortcut): Sequential()
        )
        (43): BasicBlock(
          (fc1): Linear(in_features=32, out_features=32, bias=True)
          (bn1): BatchNorm1d(32, eps=1e-05, momentum=0.1, affine=True, track_running_stats=True)
          (fc2): Linear(in_features=32, out_features=32, bias=True)
          (bn2): BatchNorm1d(32, eps=1e-05, momentum=0.1, affine=True, track_running_stats=True)
          (shortcut): Sequential()
        )
        (44): BasicBlock(
          (fc1): Linear(in_features=32, out_features=32, bias=True)
          (bn1): BatchNorm1d(32, eps=1e-05, momentum=0.1, affine=True, track_running_stats=True)
          (fc2): Linear(in_features=32, out_features=32, bias=True)
          (bn2): BatchNorm1d(32, eps=1e-05, momentum=0.1, affine=True, track_running_stats=True)
          (shortcut): Sequential()
        )
        (45): BasicBlock(
          (fc1): Linear(in_features=32, out_features=32, bias=True)
          (bn1): BatchNorm1d(32, eps=1e-05, momentum=0.1, affine=True, track_running_stats=True)
          (fc2): Linear(in_features=32, out_features=32, bias=True)
          (bn2): BatchNorm1d(32, eps=1e-05, momentum=0.1, affine=True, track_running_stats=True)
          (shortcut): Sequential()
        )
        (46): BasicBlock(
          (fc1): Linear(in_features=32, out_features=32, bias=True)
          (bn1): BatchNorm1d(32, eps=1e-05, momentum=0.1, affine=True, track_running_stats=True)
          (fc2): Linear(in_features=32, out_features=32, bias=True)
          (bn2): BatchNorm1d(32, eps=1e-05, momentum=0.1, affine=True, track_running_stats=True)
          (shortcut): Sequential()
        )
        (47): BasicBlock(
          (fc1): Linear(in_features=32, out_features=32, bias=True)
          (bn1): BatchNorm1d(32, eps=1e-05, momentum=0.1, affine=True, track_running_stats=True)
          (fc2): Linear(in_features=32, out_features=32, bias=True)
          (bn2): BatchNorm1d(32, eps=1e-05, momentum=0.1, affine=True, track_running_stats=True)
          (shortcut): Sequential()
        )
        (48): BasicBlock(
          (fc1): Linear(in_features=32, out_features=32, bias=True)
          (bn1): BatchNorm1d(32, eps=1e-05, momentum=0.1, affine=True, track_running_stats=True)
          (fc2): Linear(in_features=32, out_features=32, bias=True)
          (bn2): BatchNorm1d(32, eps=1e-05, momentum=0.1, affine=True, track_running_stats=True)
          (shortcut): Sequential()
        )
        (49): BasicBlock(
          (fc1): Linear(in_features=32, out_features=32, bias=True)
          (bn1): BatchNorm1d(32, eps=1e-05, momentum=0.1, affine=True, track_running_stats=True)
          (fc2): Linear(in_features=32, out_features=32, bias=True)
          (bn2): BatchNorm1d(32, eps=1e-05, momentum=0.1, affine=True, track_running_stats=True)
          (shortcut): Sequential()
        )
        (50): BasicBlock(
          (fc1): Linear(in_features=32, out_features=32, bias=True)
          (bn1): BatchNorm1d(32, eps=1e-05, momentum=0.1, affine=True, track_running_stats=True)
          (fc2): Linear(in_features=32, out_features=32, bias=True)
          (bn2): BatchNorm1d(32, eps=1e-05, momentum=0.1, affine=True, track_running_stats=True)
          (shortcut): Sequential()
        )
        (51): BasicBlock(
          (fc1): Linear(in_features=32, out_features=32, bias=True)
          (bn1): BatchNorm1d(32, eps=1e-05, momentum=0.1, affine=True, track_running_stats=True)
          (fc2): Linear(in_features=32, out_features=32, bias=True)
          (bn2): BatchNorm1d(32, eps=1e-05, momentum=0.1, affine=True, track_running_stats=True)
          (shortcut): Sequential()
        )
        (52): BasicBlock(
          (fc1): Linear(in_features=32, out_features=32, bias=True)
          (bn1): BatchNorm1d(32, eps=1e-05, momentum=0.1, affine=True, track_running_stats=True)
          (fc2): Linear(in_features=32, out_features=32, bias=True)
          (bn2): BatchNorm1d(32, eps=1e-05, momentum=0.1, affine=True, track_running_stats=True)
          (shortcut): Sequential()
        )
        (53): BasicBlock(
          (fc1): Linear(in_features=32, out_features=32, bias=True)
          (bn1): BatchNorm1d(32, eps=1e-05, momentum=0.1, affine=True, track_running_stats=True)
          (fc2): Linear(in_features=32, out_features=32, bias=True)
          (bn2): BatchNorm1d(32, eps=1e-05, momentum=0.1, affine=True, track_running_stats=True)
          (shortcut): Sequential()
        )
        (54): BasicBlock(
          (fc1): Linear(in_features=32, out_features=32, bias=True)
          (bn1): BatchNorm1d(32, eps=1e-05, momentum=0.1, affine=True, track_running_stats=True)
          (fc2): Linear(in_features=32, out_features=32, bias=True)
          (bn2): BatchNorm1d(32, eps=1e-05, momentum=0.1, affine=True, track_running_stats=True)
          (shortcut): Sequential()
        )
        (55): BasicBlock(
          (fc1): Linear(in_features=32, out_features=32, bias=True)
          (bn1): BatchNorm1d(32, eps=1e-05, momentum=0.1, affine=True, track_running_stats=True)
          (fc2): Linear(in_features=32, out_features=32, bias=True)
          (bn2): BatchNorm1d(32, eps=1e-05, momentum=0.1, affine=True, track_running_stats=True)
          (shortcut): Sequential()
        )
        (56): BasicBlock(
          (fc1): Linear(in_features=32, out_features=32, bias=True)
          (bn1): BatchNorm1d(32, eps=1e-05, momentum=0.1, affine=True, track_running_stats=True)
          (fc2): Linear(in_features=32, out_features=32, bias=True)
          (bn2): BatchNorm1d(32, eps=1e-05, momentum=0.1, affine=True, track_running_stats=True)
          (shortcut): Sequential()
        )
        (57): BasicBlock(
          (fc1): Linear(in_features=32, out_features=32, bias=True)
          (bn1): BatchNorm1d(32, eps=1e-05, momentum=0.1, affine=True, track_running_stats=True)
          (fc2): Linear(in_features=32, out_features=32, bias=True)
          (bn2): BatchNorm1d(32, eps=1e-05, momentum=0.1, affine=True, track_running_stats=True)
          (shortcut): Sequential()
        )
        (58): BasicBlock(
          (fc1): Linear(in_features=32, out_features=32, bias=True)
          (bn1): BatchNorm1d(32, eps=1e-05, momentum=0.1, affine=True, track_running_stats=True)
          (fc2): Linear(in_features=32, out_features=32, bias=True)
          (bn2): BatchNorm1d(32, eps=1e-05, momentum=0.1, affine=True, track_running_stats=True)
          (shortcut): Sequential()
        )
        (59): BasicBlock(
          (fc1): Linear(in_features=32, out_features=32, bias=True)
          (bn1): BatchNorm1d(32, eps=1e-05, momentum=0.1, affine=True, track_running_stats=True)
          (fc2): Linear(in_features=32, out_features=32, bias=True)
          (bn2): BatchNorm1d(32, eps=1e-05, momentum=0.1, affine=True, track_running_stats=True)
          (shortcut): Sequential()
        )
        (60): BasicBlock(
          (fc1): Linear(in_features=32, out_features=32, bias=True)
          (bn1): BatchNorm1d(32, eps=1e-05, momentum=0.1, affine=True, track_running_stats=True)
          (fc2): Linear(in_features=32, out_features=32, bias=True)
          (bn2): BatchNorm1d(32, eps=1e-05, momentum=0.1, affine=True, track_running_stats=True)
          (shortcut): Sequential()
        )
        (61): BasicBlock(
          (fc1): Linear(in_features=32, out_features=32, bias=True)
          (bn1): BatchNorm1d(32, eps=1e-05, momentum=0.1, affine=True, track_running_stats=True)
          (fc2): Linear(in_features=32, out_features=32, bias=True)
          (bn2): BatchNorm1d(32, eps=1e-05, momentum=0.1, affine=True, track_running_stats=True)
          (shortcut): Sequential()
        )
        (62): BasicBlock(
          (fc1): Linear(in_features=32, out_features=32, bias=True)
          (bn1): BatchNorm1d(32, eps=1e-05, momentum=0.1, affine=True, track_running_stats=True)
          (fc2): Linear(in_features=32, out_features=32, bias=True)
          (bn2): BatchNorm1d(32, eps=1e-05, momentum=0.1, affine=True, track_running_stats=True)
          (shortcut): Sequential()
        )
        (63): BasicBlock(
          (fc1): Linear(in_features=32, out_features=32, bias=True)
          (bn1): BatchNorm1d(32, eps=1e-05, momentum=0.1, affine=True, track_running_stats=True)
          (fc2): Linear(in_features=32, out_features=32, bias=True)
          (bn2): BatchNorm1d(32, eps=1e-05, momentum=0.1, affine=True, track_running_stats=True)
          (shortcut): Sequential()
        )
        (64): BasicBlock(
          (fc1): Linear(in_features=32, out_features=32, bias=True)
          (bn1): BatchNorm1d(32, eps=1e-05, momentum=0.1, affine=True, track_running_stats=True)
          (fc2): Linear(in_features=32, out_features=32, bias=True)
          (bn2): BatchNorm1d(32, eps=1e-05, momentum=0.1, affine=True, track_running_stats=True)
          (shortcut): Sequential()
        )
        (65): BasicBlock(
          (fc1): Linear(in_features=32, out_features=32, bias=True)
          (bn1): BatchNorm1d(32, eps=1e-05, momentum=0.1, affine=True, track_running_stats=True)
          (fc2): Linear(in_features=32, out_features=32, bias=True)
          (bn2): BatchNorm1d(32, eps=1e-05, momentum=0.1, affine=True, track_running_stats=True)
          (shortcut): Sequential()
        )
        (66): BasicBlock(
          (fc1): Linear(in_features=32, out_features=32, bias=True)
          (bn1): BatchNorm1d(32, eps=1e-05, momentum=0.1, affine=True, track_running_stats=True)
          (fc2): Linear(in_features=32, out_features=32, bias=True)
          (bn2): BatchNorm1d(32, eps=1e-05, momentum=0.1, affine=True, track_running_stats=True)
          (shortcut): Sequential()
        )
        (67): BasicBlock(
          (fc1): Linear(in_features=32, out_features=32, bias=True)
          (bn1): BatchNorm1d(32, eps=1e-05, momentum=0.1, affine=True, track_running_stats=True)
          (fc2): Linear(in_features=32, out_features=32, bias=True)
          (bn2): BatchNorm1d(32, eps=1e-05, momentum=0.1, affine=True, track_running_stats=True)
          (shortcut): Sequential()
        )
        (68): BasicBlock(
          (fc1): Linear(in_features=32, out_features=32, bias=True)
          (bn1): BatchNorm1d(32, eps=1e-05, momentum=0.1, affine=True, track_running_stats=True)
          (fc2): Linear(in_features=32, out_features=32, bias=True)
          (bn2): BatchNorm1d(32, eps=1e-05, momentum=0.1, affine=True, track_running_stats=True)
          (shortcut): Sequential()
        )
        (69): BasicBlock(
          (fc1): Linear(in_features=32, out_features=32, bias=True)
          (bn1): BatchNorm1d(32, eps=1e-05, momentum=0.1, affine=True, track_running_stats=True)
          (fc2): Linear(in_features=32, out_features=32, bias=True)
          (bn2): BatchNorm1d(32, eps=1e-05, momentum=0.1, affine=True, track_running_stats=True)
          (shortcut): Sequential()
        )
        (70): BasicBlock(
          (fc1): Linear(in_features=32, out_features=32, bias=True)
          (bn1): BatchNorm1d(32, eps=1e-05, momentum=0.1, affine=True, track_running_stats=True)
          (fc2): Linear(in_features=32, out_features=32, bias=True)
          (bn2): BatchNorm1d(32, eps=1e-05, momentum=0.1, affine=True, track_running_stats=True)
          (shortcut): Sequential()
        )
        (71): BasicBlock(
          (fc1): Linear(in_features=32, out_features=32, bias=True)
          (bn1): BatchNorm1d(32, eps=1e-05, momentum=0.1, affine=True, track_running_stats=True)
          (fc2): Linear(in_features=32, out_features=32, bias=True)
          (bn2): BatchNorm1d(32, eps=1e-05, momentum=0.1, affine=True, track_running_stats=True)
          (shortcut): Sequential()
        )
        (72): BasicBlock(
          (fc1): Linear(in_features=32, out_features=32, bias=True)
          (bn1): BatchNorm1d(32, eps=1e-05, momentum=0.1, affine=True, track_running_stats=True)
          (fc2): Linear(in_features=32, out_features=32, bias=True)
          (bn2): BatchNorm1d(32, eps=1e-05, momentum=0.1, affine=True, track_running_stats=True)
          (shortcut): Sequential()
        )
        (73): BasicBlock(
          (fc1): Linear(in_features=32, out_features=32, bias=True)
          (bn1): BatchNorm1d(32, eps=1e-05, momentum=0.1, affine=True, track_running_stats=True)
          (fc2): Linear(in_features=32, out_features=32, bias=True)
          (bn2): BatchNorm1d(32, eps=1e-05, momentum=0.1, affine=True, track_running_stats=True)
          (shortcut): Sequential()
        )
        (74): BasicBlock(
          (fc1): Linear(in_features=32, out_features=32, bias=True)
          (bn1): BatchNorm1d(32, eps=1e-05, momentum=0.1, affine=True, track_running_stats=True)
          (fc2): Linear(in_features=32, out_features=32, bias=True)
          (bn2): BatchNorm1d(32, eps=1e-05, momentum=0.1, affine=True, track_running_stats=True)
          (shortcut): Sequential()
        )
        (75): BasicBlock(
          (fc1): Linear(in_features=32, out_features=32, bias=True)
          (bn1): BatchNorm1d(32, eps=1e-05, momentum=0.1, affine=True, track_running_stats=True)
          (fc2): Linear(in_features=32, out_features=32, bias=True)
          (bn2): BatchNorm1d(32, eps=1e-05, momentum=0.1, affine=True, track_running_stats=True)
          (shortcut): Sequential()
        )
        (76): BasicBlock(
          (fc1): Linear(in_features=32, out_features=32, bias=True)
          (bn1): BatchNorm1d(32, eps=1e-05, momentum=0.1, affine=True, track_running_stats=True)
          (fc2): Linear(in_features=32, out_features=32, bias=True)
          (bn2): BatchNorm1d(32, eps=1e-05, momentum=0.1, affine=True, track_running_stats=True)
          (shortcut): Sequential()
        )
        (77): BasicBlock(
          (fc1): Linear(in_features=32, out_features=32, bias=True)
          (bn1): BatchNorm1d(32, eps=1e-05, momentum=0.1, affine=True, track_running_stats=True)
          (fc2): Linear(in_features=32, out_features=32, bias=True)
          (bn2): BatchNorm1d(32, eps=1e-05, momentum=0.1, affine=True, track_running_stats=True)
          (shortcut): Sequential()
        )
        (78): BasicBlock(
          (fc1): Linear(in_features=32, out_features=32, bias=True)
          (bn1): BatchNorm1d(32, eps=1e-05, momentum=0.1, affine=True, track_running_stats=True)
          (fc2): Linear(in_features=32, out_features=32, bias=True)
          (bn2): BatchNorm1d(32, eps=1e-05, momentum=0.1, affine=True, track_running_stats=True)
          (shortcut): Sequential()
        )
        (79): BasicBlock(
          (fc1): Linear(in_features=32, out_features=32, bias=True)
          (bn1): BatchNorm1d(32, eps=1e-05, momentum=0.1, affine=True, track_running_stats=True)
          (fc2): Linear(in_features=32, out_features=32, bias=True)
          (bn2): BatchNorm1d(32, eps=1e-05, momentum=0.1, affine=True, track_running_stats=True)
          (shortcut): Sequential()
        )
        (80): BasicBlock(
          (fc1): Linear(in_features=32, out_features=32, bias=True)
          (bn1): BatchNorm1d(32, eps=1e-05, momentum=0.1, affine=True, track_running_stats=True)
          (fc2): Linear(in_features=32, out_features=32, bias=True)
          (bn2): BatchNorm1d(32, eps=1e-05, momentum=0.1, affine=True, track_running_stats=True)
          (shortcut): Sequential()
        )
        (81): BasicBlock(
          (fc1): Linear(in_features=32, out_features=32, bias=True)
          (bn1): BatchNorm1d(32, eps=1e-05, momentum=0.1, affine=True, track_running_stats=True)
          (fc2): Linear(in_features=32, out_features=32, bias=True)
          (bn2): BatchNorm1d(32, eps=1e-05, momentum=0.1, affine=True, track_running_stats=True)
          (shortcut): Sequential()
        )
        (82): BasicBlock(
          (fc1): Linear(in_features=32, out_features=32, bias=True)
          (bn1): BatchNorm1d(32, eps=1e-05, momentum=0.1, affine=True, track_running_stats=True)
          (fc2): Linear(in_features=32, out_features=32, bias=True)
          (bn2): BatchNorm1d(32, eps=1e-05, momentum=0.1, affine=True, track_running_stats=True)
          (shortcut): Sequential()
        )
        (83): BasicBlock(
          (fc1): Linear(in_features=32, out_features=32, bias=True)
          (bn1): BatchNorm1d(32, eps=1e-05, momentum=0.1, affine=True, track_running_stats=True)
          (fc2): Linear(in_features=32, out_features=32, bias=True)
          (bn2): BatchNorm1d(32, eps=1e-05, momentum=0.1, affine=True, track_running_stats=True)
          (shortcut): Sequential()
        )
        (84): BasicBlock(
          (fc1): Linear(in_features=32, out_features=32, bias=True)
          (bn1): BatchNorm1d(32, eps=1e-05, momentum=0.1, affine=True, track_running_stats=True)
          (fc2): Linear(in_features=32, out_features=32, bias=True)
          (bn2): BatchNorm1d(32, eps=1e-05, momentum=0.1, affine=True, track_running_stats=True)
          (shortcut): Sequential()
        )
        (85): BasicBlock(
          (fc1): Linear(in_features=32, out_features=32, bias=True)
          (bn1): BatchNorm1d(32, eps=1e-05, momentum=0.1, affine=True, track_running_stats=True)
          (fc2): Linear(in_features=32, out_features=32, bias=True)
          (bn2): BatchNorm1d(32, eps=1e-05, momentum=0.1, affine=True, track_running_stats=True)
          (shortcut): Sequential()
        )
        (86): BasicBlock(
          (fc1): Linear(in_features=32, out_features=32, bias=True)
          (bn1): BatchNorm1d(32, eps=1e-05, momentum=0.1, affine=True, track_running_stats=True)
          (fc2): Linear(in_features=32, out_features=32, bias=True)
          (bn2): BatchNorm1d(32, eps=1e-05, momentum=0.1, affine=True, track_running_stats=True)
          (shortcut): Sequential()
        )
        (87): BasicBlock(
          (fc1): Linear(in_features=32, out_features=32, bias=True)
          (bn1): BatchNorm1d(32, eps=1e-05, momentum=0.1, affine=True, track_running_stats=True)
          (fc2): Linear(in_features=32, out_features=32, bias=True)
          (bn2): BatchNorm1d(32, eps=1e-05, momentum=0.1, affine=True, track_running_stats=True)
          (shortcut): Sequential()
        )
        (88): BasicBlock(
          (fc1): Linear(in_features=32, out_features=32, bias=True)
          (bn1): BatchNorm1d(32, eps=1e-05, momentum=0.1, affine=True, track_running_stats=True)
          (fc2): Linear(in_features=32, out_features=32, bias=True)
          (bn2): BatchNorm1d(32, eps=1e-05, momentum=0.1, affine=True, track_running_stats=True)
          (shortcut): Sequential()
        )
        (89): BasicBlock(
          (fc1): Linear(in_features=32, out_features=32, bias=True)
          (bn1): BatchNorm1d(32, eps=1e-05, momentum=0.1, affine=True, track_running_stats=True)
          (fc2): Linear(in_features=32, out_features=32, bias=True)
          (bn2): BatchNorm1d(32, eps=1e-05, momentum=0.1, affine=True, track_running_stats=True)
          (shortcut): Sequential()
        )
        (90): BasicBlock(
          (fc1): Linear(in_features=32, out_features=32, bias=True)
          (bn1): BatchNorm1d(32, eps=1e-05, momentum=0.1, affine=True, track_running_stats=True)
          (fc2): Linear(in_features=32, out_features=32, bias=True)
          (bn2): BatchNorm1d(32, eps=1e-05, momentum=0.1, affine=True, track_running_stats=True)
          (shortcut): Sequential()
        )
        (91): BasicBlock(
          (fc1): Linear(in_features=32, out_features=32, bias=True)
          (bn1): BatchNorm1d(32, eps=1e-05, momentum=0.1, affine=True, track_running_stats=True)
          (fc2): Linear(in_features=32, out_features=32, bias=True)
          (bn2): BatchNorm1d(32, eps=1e-05, momentum=0.1, affine=True, track_running_stats=True)
          (shortcut): Sequential()
        )
        (92): BasicBlock(
          (fc1): Linear(in_features=32, out_features=32, bias=True)
          (bn1): BatchNorm1d(32, eps=1e-05, momentum=0.1, affine=True, track_running_stats=True)
          (fc2): Linear(in_features=32, out_features=32, bias=True)
          (bn2): BatchNorm1d(32, eps=1e-05, momentum=0.1, affine=True, track_running_stats=True)
          (shortcut): Sequential()
        )
        (93): BasicBlock(
          (fc1): Linear(in_features=32, out_features=32, bias=True)
          (bn1): BatchNorm1d(32, eps=1e-05, momentum=0.1, affine=True, track_running_stats=True)
          (fc2): Linear(in_features=32, out_features=32, bias=True)
          (bn2): BatchNorm1d(32, eps=1e-05, momentum=0.1, affine=True, track_running_stats=True)
          (shortcut): Sequential()
        )
        (94): BasicBlock(
          (fc1): Linear(in_features=32, out_features=32, bias=True)
          (bn1): BatchNorm1d(32, eps=1e-05, momentum=0.1, affine=True, track_running_stats=True)
          (fc2): Linear(in_features=32, out_features=32, bias=True)
          (bn2): BatchNorm1d(32, eps=1e-05, momentum=0.1, affine=True, track_running_stats=True)
          (shortcut): Sequential()
        )
        (95): BasicBlock(
          (fc1): Linear(in_features=32, out_features=32, bias=True)
          (bn1): BatchNorm1d(32, eps=1e-05, momentum=0.1, affine=True, track_running_stats=True)
          (fc2): Linear(in_features=32, out_features=32, bias=True)
          (bn2): BatchNorm1d(32, eps=1e-05, momentum=0.1, affine=True, track_running_stats=True)
          (shortcut): Sequential()
        )
        (96): BasicBlock(
          (fc1): Linear(in_features=32, out_features=32, bias=True)
          (bn1): BatchNorm1d(32, eps=1e-05, momentum=0.1, affine=True, track_running_stats=True)
          (fc2): Linear(in_features=32, out_features=32, bias=True)
          (bn2): BatchNorm1d(32, eps=1e-05, momentum=0.1, affine=True, track_running_stats=True)
          (shortcut): Sequential()
        )
        (97): BasicBlock(
          (fc1): Linear(in_features=32, out_features=32, bias=True)
          (bn1): BatchNorm1d(32, eps=1e-05, momentum=0.1, affine=True, track_running_stats=True)
          (fc2): Linear(in_features=32, out_features=32, bias=True)
          (bn2): BatchNorm1d(32, eps=1e-05, momentum=0.1, affine=True, track_running_stats=True)
          (shortcut): Sequential()
        )
        (98): BasicBlock(
          (fc1): Linear(in_features=32, out_features=32, bias=True)
          (bn1): BatchNorm1d(32, eps=1e-05, momentum=0.1, affine=True, track_running_stats=True)
          (fc2): Linear(in_features=32, out_features=32, bias=True)
          (bn2): BatchNorm1d(32, eps=1e-05, momentum=0.1, affine=True, track_running_stats=True)
          (shortcut): Sequential()
        )
        (99): BasicBlock(
          (fc1): Linear(in_features=32, out_features=32, bias=True)
          (bn1): BatchNorm1d(32, eps=1e-05, momentum=0.1, affine=True, track_running_stats=True)
          (fc2): Linear(in_features=32, out_features=32, bias=True)
          (bn2): BatchNorm1d(32, eps=1e-05, momentum=0.1, affine=True, track_running_stats=True)
          (shortcut): Sequential()
        )
        (100): BasicBlock(
          (fc1): Linear(in_features=32, out_features=32, bias=True)
          (bn1): BatchNorm1d(32, eps=1e-05, momentum=0.1, affine=True, track_running_stats=True)
          (fc2): Linear(in_features=32, out_features=32, bias=True)
          (bn2): BatchNorm1d(32, eps=1e-05, momentum=0.1, affine=True, track_running_stats=True)
          (shortcut): Sequential()
        )
        (101): BasicBlock(
          (fc1): Linear(in_features=32, out_features=32, bias=True)
          (bn1): BatchNorm1d(32, eps=1e-05, momentum=0.1, affine=True, track_running_stats=True)
          (fc2): Linear(in_features=32, out_features=32, bias=True)
          (bn2): BatchNorm1d(32, eps=1e-05, momentum=0.1, affine=True, track_running_stats=True)
          (shortcut): Sequential()
        )
        (102): BasicBlock(
          (fc1): Linear(in_features=32, out_features=32, bias=True)
          (bn1): BatchNorm1d(32, eps=1e-05, momentum=0.1, affine=True, track_running_stats=True)
          (fc2): Linear(in_features=32, out_features=32, bias=True)
          (bn2): BatchNorm1d(32, eps=1e-05, momentum=0.1, affine=True, track_running_stats=True)
          (shortcut): Sequential()
        )
        (103): BasicBlock(
          (fc1): Linear(in_features=32, out_features=32, bias=True)
          (bn1): BatchNorm1d(32, eps=1e-05, momentum=0.1, affine=True, track_running_stats=True)
          (fc2): Linear(in_features=32, out_features=32, bias=True)
          (bn2): BatchNorm1d(32, eps=1e-05, momentum=0.1, affine=True, track_running_stats=True)
          (shortcut): Sequential()
        )
        (104): BasicBlock(
          (fc1): Linear(in_features=32, out_features=32, bias=True)
          (bn1): BatchNorm1d(32, eps=1e-05, momentum=0.1, affine=True, track_running_stats=True)
          (fc2): Linear(in_features=32, out_features=32, bias=True)
          (bn2): BatchNorm1d(32, eps=1e-05, momentum=0.1, affine=True, track_running_stats=True)
          (shortcut): Sequential()
        )
        (105): BasicBlock(
          (fc1): Linear(in_features=32, out_features=32, bias=True)
          (bn1): BatchNorm1d(32, eps=1e-05, momentum=0.1, affine=True, track_running_stats=True)
          (fc2): Linear(in_features=32, out_features=32, bias=True)
          (bn2): BatchNorm1d(32, eps=1e-05, momentum=0.1, affine=True, track_running_stats=True)
          (shortcut): Sequential()
        )
        (106): BasicBlock(
          (fc1): Linear(in_features=32, out_features=32, bias=True)
          (bn1): BatchNorm1d(32, eps=1e-05, momentum=0.1, affine=True, track_running_stats=True)
          (fc2): Linear(in_features=32, out_features=32, bias=True)
          (bn2): BatchNorm1d(32, eps=1e-05, momentum=0.1, affine=True, track_running_stats=True)
          (shortcut): Sequential()
        )
        (107): BasicBlock(
          (fc1): Linear(in_features=32, out_features=32, bias=True)
          (bn1): BatchNorm1d(32, eps=1e-05, momentum=0.1, affine=True, track_running_stats=True)
          (fc2): Linear(in_features=32, out_features=32, bias=True)
          (bn2): BatchNorm1d(32, eps=1e-05, momentum=0.1, affine=True, track_running_stats=True)
          (shortcut): Sequential()
        )
        (108): BasicBlock(
          (fc1): Linear(in_features=32, out_features=32, bias=True)
          (bn1): BatchNorm1d(32, eps=1e-05, momentum=0.1, affine=True, track_running_stats=True)
          (fc2): Linear(in_features=32, out_features=32, bias=True)
          (bn2): BatchNorm1d(32, eps=1e-05, momentum=0.1, affine=True, track_running_stats=True)
          (shortcut): Sequential()
        )
        (109): BasicBlock(
          (fc1): Linear(in_features=32, out_features=32, bias=True)
          (bn1): BatchNorm1d(32, eps=1e-05, momentum=0.1, affine=True, track_running_stats=True)
          (fc2): Linear(in_features=32, out_features=32, bias=True)
          (bn2): BatchNorm1d(32, eps=1e-05, momentum=0.1, affine=True, track_running_stats=True)
          (shortcut): Sequential()
        )
        (110): BasicBlock(
          (fc1): Linear(in_features=32, out_features=32, bias=True)
          (bn1): BatchNorm1d(32, eps=1e-05, momentum=0.1, affine=True, track_running_stats=True)
          (fc2): Linear(in_features=32, out_features=32, bias=True)
          (bn2): BatchNorm1d(32, eps=1e-05, momentum=0.1, affine=True, track_running_stats=True)
          (shortcut): Sequential()
        )
        (111): BasicBlock(
          (fc1): Linear(in_features=32, out_features=32, bias=True)
          (bn1): BatchNorm1d(32, eps=1e-05, momentum=0.1, affine=True, track_running_stats=True)
          (fc2): Linear(in_features=32, out_features=32, bias=True)
          (bn2): BatchNorm1d(32, eps=1e-05, momentum=0.1, affine=True, track_running_stats=True)
          (shortcut): Sequential()
        )
        (112): BasicBlock(
          (fc1): Linear(in_features=32, out_features=32, bias=True)
          (bn1): BatchNorm1d(32, eps=1e-05, momentum=0.1, affine=True, track_running_stats=True)
          (fc2): Linear(in_features=32, out_features=32, bias=True)
          (bn2): BatchNorm1d(32, eps=1e-05, momentum=0.1, affine=True, track_running_stats=True)
          (shortcut): Sequential()
        )
        (113): BasicBlock(
          (fc1): Linear(in_features=32, out_features=32, bias=True)
          (bn1): BatchNorm1d(32, eps=1e-05, momentum=0.1, affine=True, track_running_stats=True)
          (fc2): Linear(in_features=32, out_features=32, bias=True)
          (bn2): BatchNorm1d(32, eps=1e-05, momentum=0.1, affine=True, track_running_stats=True)
          (shortcut): Sequential()
        )
        (114): BasicBlock(
          (fc1): Linear(in_features=32, out_features=32, bias=True)
          (bn1): BatchNorm1d(32, eps=1e-05, momentum=0.1, affine=True, track_running_stats=True)
          (fc2): Linear(in_features=32, out_features=32, bias=True)
          (bn2): BatchNorm1d(32, eps=1e-05, momentum=0.1, affine=True, track_running_stats=True)
          (shortcut): Sequential()
        )
        (115): BasicBlock(
          (fc1): Linear(in_features=32, out_features=32, bias=True)
          (bn1): BatchNorm1d(32, eps=1e-05, momentum=0.1, affine=True, track_running_stats=True)
          (fc2): Linear(in_features=32, out_features=32, bias=True)
          (bn2): BatchNorm1d(32, eps=1e-05, momentum=0.1, affine=True, track_running_stats=True)
          (shortcut): Sequential()
        )
        (116): BasicBlock(
          (fc1): Linear(in_features=32, out_features=32, bias=True)
          (bn1): BatchNorm1d(32, eps=1e-05, momentum=0.1, affine=True, track_running_stats=True)
          (fc2): Linear(in_features=32, out_features=32, bias=True)
          (bn2): BatchNorm1d(32, eps=1e-05, momentum=0.1, affine=True, track_running_stats=True)
          (shortcut): Sequential()
        )
        (117): BasicBlock(
          (fc1): Linear(in_features=32, out_features=32, bias=True)
          (bn1): BatchNorm1d(32, eps=1e-05, momentum=0.1, affine=True, track_running_stats=True)
          (fc2): Linear(in_features=32, out_features=32, bias=True)
          (bn2): BatchNorm1d(32, eps=1e-05, momentum=0.1, affine=True, track_running_stats=True)
          (shortcut): Sequential()
        )
        (118): BasicBlock(
          (fc1): Linear(in_features=32, out_features=32, bias=True)
          (bn1): BatchNorm1d(32, eps=1e-05, momentum=0.1, affine=True, track_running_stats=True)
          (fc2): Linear(in_features=32, out_features=32, bias=True)
          (bn2): BatchNorm1d(32, eps=1e-05, momentum=0.1, affine=True, track_running_stats=True)
          (shortcut): Sequential()
        )
        (119): BasicBlock(
          (fc1): Linear(in_features=32, out_features=32, bias=True)
          (bn1): BatchNorm1d(32, eps=1e-05, momentum=0.1, affine=True, track_running_stats=True)
          (fc2): Linear(in_features=32, out_features=32, bias=True)
          (bn2): BatchNorm1d(32, eps=1e-05, momentum=0.1, affine=True, track_running_stats=True)
          (shortcut): Sequential()
        )
        (120): BasicBlock(
          (fc1): Linear(in_features=32, out_features=32, bias=True)
          (bn1): BatchNorm1d(32, eps=1e-05, momentum=0.1, affine=True, track_running_stats=True)
          (fc2): Linear(in_features=32, out_features=32, bias=True)
          (bn2): BatchNorm1d(32, eps=1e-05, momentum=0.1, affine=True, track_running_stats=True)
          (shortcut): Sequential()
        )
        (121): BasicBlock(
          (fc1): Linear(in_features=32, out_features=32, bias=True)
          (bn1): BatchNorm1d(32, eps=1e-05, momentum=0.1, affine=True, track_running_stats=True)
          (fc2): Linear(in_features=32, out_features=32, bias=True)
          (bn2): BatchNorm1d(32, eps=1e-05, momentum=0.1, affine=True, track_running_stats=True)
          (shortcut): Sequential()
        )
        (122): BasicBlock(
          (fc1): Linear(in_features=32, out_features=32, bias=True)
          (bn1): BatchNorm1d(32, eps=1e-05, momentum=0.1, affine=True, track_running_stats=True)
          (fc2): Linear(in_features=32, out_features=32, bias=True)
          (bn2): BatchNorm1d(32, eps=1e-05, momentum=0.1, affine=True, track_running_stats=True)
          (shortcut): Sequential()
        )
        (123): BasicBlock(
          (fc1): Linear(in_features=32, out_features=32, bias=True)
          (bn1): BatchNorm1d(32, eps=1e-05, momentum=0.1, affine=True, track_running_stats=True)
          (fc2): Linear(in_features=32, out_features=32, bias=True)
          (bn2): BatchNorm1d(32, eps=1e-05, momentum=0.1, affine=True, track_running_stats=True)
          (shortcut): Sequential()
        )
        (124): BasicBlock(
          (fc1): Linear(in_features=32, out_features=32, bias=True)
          (bn1): BatchNorm1d(32, eps=1e-05, momentum=0.1, affine=True, track_running_stats=True)
          (fc2): Linear(in_features=32, out_features=32, bias=True)
          (bn2): BatchNorm1d(32, eps=1e-05, momentum=0.1, affine=True, track_running_stats=True)
          (shortcut): Sequential()
        )
        (125): BasicBlock(
          (fc1): Linear(in_features=32, out_features=32, bias=True)
          (bn1): BatchNorm1d(32, eps=1e-05, momentum=0.1, affine=True, track_running_stats=True)
          (fc2): Linear(in_features=32, out_features=32, bias=True)
          (bn2): BatchNorm1d(32, eps=1e-05, momentum=0.1, affine=True, track_running_stats=True)
          (shortcut): Sequential()
        )
        (126): BasicBlock(
          (fc1): Linear(in_features=32, out_features=32, bias=True)
          (bn1): BatchNorm1d(32, eps=1e-05, momentum=0.1, affine=True, track_running_stats=True)
          (fc2): Linear(in_features=32, out_features=32, bias=True)
          (bn2): BatchNorm1d(32, eps=1e-05, momentum=0.1, affine=True, track_running_stats=True)
          (shortcut): Sequential()
        )
        (127): BasicBlock(
          (fc1): Linear(in_features=32, out_features=32, bias=True)
          (bn1): BatchNorm1d(32, eps=1e-05, momentum=0.1, affine=True, track_running_stats=True)
          (fc2): Linear(in_features=32, out_features=32, bias=True)
          (bn2): BatchNorm1d(32, eps=1e-05, momentum=0.1, affine=True, track_running_stats=True)
          (shortcut): Sequential()
        )
      )
      (layer3): Sequential(
        (0): BasicBlock(
          (fc1): Linear(in_features=32, out_features=64, bias=True)
          (bn1): BatchNorm1d(64, eps=1e-05, momentum=0.1, affine=True, track_running_stats=True)
          (fc2): Linear(in_features=64, out_features=64, bias=True)
          (bn2): BatchNorm1d(64, eps=1e-05, momentum=0.1, affine=True, track_running_stats=True)
          (shortcut): Sequential(
            (0): Linear(in_features=32, out_features=64, bias=True)
            (1): BatchNorm1d(64, eps=1e-05, momentum=0.1, affine=True, track_running_stats=True)
          )
        )
        (1): BasicBlock(
          (fc1): Linear(in_features=64, out_features=64, bias=True)
          (bn1): BatchNorm1d(64, eps=1e-05, momentum=0.1, affine=True, track_running_stats=True)
          (fc2): Linear(in_features=64, out_features=64, bias=True)
          (bn2): BatchNorm1d(64, eps=1e-05, momentum=0.1, affine=True, track_running_stats=True)
          (shortcut): Sequential()
        )
        (2): BasicBlock(
          (fc1): Linear(in_features=64, out_features=64, bias=True)
          (bn1): BatchNorm1d(64, eps=1e-05, momentum=0.1, affine=True, track_running_stats=True)
          (fc2): Linear(in_features=64, out_features=64, bias=True)
          (bn2): BatchNorm1d(64, eps=1e-05, momentum=0.1, affine=True, track_running_stats=True)
          (shortcut): Sequential()
        )
        (3): BasicBlock(
          (fc1): Linear(in_features=64, out_features=64, bias=True)
          (bn1): BatchNorm1d(64, eps=1e-05, momentum=0.1, affine=True, track_running_stats=True)
          (fc2): Linear(in_features=64, out_features=64, bias=True)
          (bn2): BatchNorm1d(64, eps=1e-05, momentum=0.1, affine=True, track_running_stats=True)
          (shortcut): Sequential()
        )
        (4): BasicBlock(
          (fc1): Linear(in_features=64, out_features=64, bias=True)
          (bn1): BatchNorm1d(64, eps=1e-05, momentum=0.1, affine=True, track_running_stats=True)
          (fc2): Linear(in_features=64, out_features=64, bias=True)
          (bn2): BatchNorm1d(64, eps=1e-05, momentum=0.1, affine=True, track_running_stats=True)
          (shortcut): Sequential()
        )
        (5): BasicBlock(
          (fc1): Linear(in_features=64, out_features=64, bias=True)
          (bn1): BatchNorm1d(64, eps=1e-05, momentum=0.1, affine=True, track_running_stats=True)
          (fc2): Linear(in_features=64, out_features=64, bias=True)
          (bn2): BatchNorm1d(64, eps=1e-05, momentum=0.1, affine=True, track_running_stats=True)
          (shortcut): Sequential()
        )
      )
      (linear): Linear(in_features=64, out_features=45, bias=True)
    )
  )
  (u_dictionary): TrainableDictionary(
    (encoder): ResNet(
      (layer1): Sequential(
        (0): BasicBlock(
          (fc1): Linear(in_features=2, out_features=16, bias=True)
          (bn1): BatchNorm1d(16, eps=1e-05, momentum=0.1, affine=True, track_running_stats=True)
          (fc2): Linear(in_features=16, out_features=16, bias=True)
          (bn2): BatchNorm1d(16, eps=1e-05, momentum=0.1, affine=True, track_running_stats=True)
          (shortcut): Sequential(
            (0): Linear(in_features=2, out_features=16, bias=True)
            (1): BatchNorm1d(16, eps=1e-05, momentum=0.1, affine=True, track_running_stats=True)
          )
        )
        (1): BasicBlock(
          (fc1): Linear(in_features=16, out_features=16, bias=True)
          (bn1): BatchNorm1d(16, eps=1e-05, momentum=0.1, affine=True, track_running_stats=True)
          (fc2): Linear(in_features=16, out_features=16, bias=True)
          (bn2): BatchNorm1d(16, eps=1e-05, momentum=0.1, affine=True, track_running_stats=True)
          (shortcut): Sequential()
        )
        (2): BasicBlock(
          (fc1): Linear(in_features=16, out_features=16, bias=True)
          (bn1): BatchNorm1d(16, eps=1e-05, momentum=0.1, affine=True, track_running_stats=True)
          (fc2): Linear(in_features=16, out_features=16, bias=True)
          (bn2): BatchNorm1d(16, eps=1e-05, momentum=0.1, affine=True, track_running_stats=True)
          (shortcut): Sequential()
        )
        (3): BasicBlock(
          (fc1): Linear(in_features=16, out_features=16, bias=True)
          (bn1): BatchNorm1d(16, eps=1e-05, momentum=0.1, affine=True, track_running_stats=True)
          (fc2): Linear(in_features=16, out_features=16, bias=True)
          (bn2): BatchNorm1d(16, eps=1e-05, momentum=0.1, affine=True, track_running_stats=True)
          (shortcut): Sequential()
        )
        (4): BasicBlock(
          (fc1): Linear(in_features=16, out_features=16, bias=True)
          (bn1): BatchNorm1d(16, eps=1e-05, momentum=0.1, affine=True, track_running_stats=True)
          (fc2): Linear(in_features=16, out_features=16, bias=True)
          (bn2): BatchNorm1d(16, eps=1e-05, momentum=0.1, affine=True, track_running_stats=True)
          (shortcut): Sequential()
        )
        (5): BasicBlock(
          (fc1): Linear(in_features=16, out_features=16, bias=True)
          (bn1): BatchNorm1d(16, eps=1e-05, momentum=0.1, affine=True, track_running_stats=True)
          (fc2): Linear(in_features=16, out_features=16, bias=True)
          (bn2): BatchNorm1d(16, eps=1e-05, momentum=0.1, affine=True, track_running_stats=True)
          (shortcut): Sequential()
        )
        (6): BasicBlock(
          (fc1): Linear(in_features=16, out_features=16, bias=True)
          (bn1): BatchNorm1d(16, eps=1e-05, momentum=0.1, affine=True, track_running_stats=True)
          (fc2): Linear(in_features=16, out_features=16, bias=True)
          (bn2): BatchNorm1d(16, eps=1e-05, momentum=0.1, affine=True, track_running_stats=True)
          (shortcut): Sequential()
        )
        (7): BasicBlock(
          (fc1): Linear(in_features=16, out_features=16, bias=True)
          (bn1): BatchNorm1d(16, eps=1e-05, momentum=0.1, affine=True, track_running_stats=True)
          (fc2): Linear(in_features=16, out_features=16, bias=True)
          (bn2): BatchNorm1d(16, eps=1e-05, momentum=0.1, affine=True, track_running_stats=True)
          (shortcut): Sequential()
        )
        (8): BasicBlock(
          (fc1): Linear(in_features=16, out_features=16, bias=True)
          (bn1): BatchNorm1d(16, eps=1e-05, momentum=0.1, affine=True, track_running_stats=True)
          (fc2): Linear(in_features=16, out_features=16, bias=True)
          (bn2): BatchNorm1d(16, eps=1e-05, momentum=0.1, affine=True, track_running_stats=True)
          (shortcut): Sequential()
        )
        (9): BasicBlock(
          (fc1): Linear(in_features=16, out_features=16, bias=True)
          (bn1): BatchNorm1d(16, eps=1e-05, momentum=0.1, affine=True, track_running_stats=True)
          (fc2): Linear(in_features=16, out_features=16, bias=True)
          (bn2): BatchNorm1d(16, eps=1e-05, momentum=0.1, affine=True, track_running_stats=True)
          (shortcut): Sequential()
        )
        (10): BasicBlock(
          (fc1): Linear(in_features=16, out_features=16, bias=True)
          (bn1): BatchNorm1d(16, eps=1e-05, momentum=0.1, affine=True, track_running_stats=True)
          (fc2): Linear(in_features=16, out_features=16, bias=True)
          (bn2): BatchNorm1d(16, eps=1e-05, momentum=0.1, affine=True, track_running_stats=True)
          (shortcut): Sequential()
        )
        (11): BasicBlock(
          (fc1): Linear(in_features=16, out_features=16, bias=True)
          (bn1): BatchNorm1d(16, eps=1e-05, momentum=0.1, affine=True, track_running_stats=True)
          (fc2): Linear(in_features=16, out_features=16, bias=True)
          (bn2): BatchNorm1d(16, eps=1e-05, momentum=0.1, affine=True, track_running_stats=True)
          (shortcut): Sequential()
        )
        (12): BasicBlock(
          (fc1): Linear(in_features=16, out_features=16, bias=True)
          (bn1): BatchNorm1d(16, eps=1e-05, momentum=0.1, affine=True, track_running_stats=True)
          (fc2): Linear(in_features=16, out_features=16, bias=True)
          (bn2): BatchNorm1d(16, eps=1e-05, momentum=0.1, affine=True, track_running_stats=True)
          (shortcut): Sequential()
        )
        (13): BasicBlock(
          (fc1): Linear(in_features=16, out_features=16, bias=True)
          (bn1): BatchNorm1d(16, eps=1e-05, momentum=0.1, affine=True, track_running_stats=True)
          (fc2): Linear(in_features=16, out_features=16, bias=True)
          (bn2): BatchNorm1d(16, eps=1e-05, momentum=0.1, affine=True, track_running_stats=True)
          (shortcut): Sequential()
        )
        (14): BasicBlock(
          (fc1): Linear(in_features=16, out_features=16, bias=True)
          (bn1): BatchNorm1d(16, eps=1e-05, momentum=0.1, affine=True, track_running_stats=True)
          (fc2): Linear(in_features=16, out_features=16, bias=True)
          (bn2): BatchNorm1d(16, eps=1e-05, momentum=0.1, affine=True, track_running_stats=True)
          (shortcut): Sequential()
        )
        (15): BasicBlock(
          (fc1): Linear(in_features=16, out_features=16, bias=True)
          (bn1): BatchNorm1d(16, eps=1e-05, momentum=0.1, affine=True, track_running_stats=True)
          (fc2): Linear(in_features=16, out_features=16, bias=True)
          (bn2): BatchNorm1d(16, eps=1e-05, momentum=0.1, affine=True, track_running_stats=True)
          (shortcut): Sequential()
        )
        (16): BasicBlock(
          (fc1): Linear(in_features=16, out_features=16, bias=True)
          (bn1): BatchNorm1d(16, eps=1e-05, momentum=0.1, affine=True, track_running_stats=True)
          (fc2): Linear(in_features=16, out_features=16, bias=True)
          (bn2): BatchNorm1d(16, eps=1e-05, momentum=0.1, affine=True, track_running_stats=True)
          (shortcut): Sequential()
        )
        (17): BasicBlock(
          (fc1): Linear(in_features=16, out_features=16, bias=True)
          (bn1): BatchNorm1d(16, eps=1e-05, momentum=0.1, affine=True, track_running_stats=True)
          (fc2): Linear(in_features=16, out_features=16, bias=True)
          (bn2): BatchNorm1d(16, eps=1e-05, momentum=0.1, affine=True, track_running_stats=True)
          (shortcut): Sequential()
        )
        (18): BasicBlock(
          (fc1): Linear(in_features=16, out_features=16, bias=True)
          (bn1): BatchNorm1d(16, eps=1e-05, momentum=0.1, affine=True, track_running_stats=True)
          (fc2): Linear(in_features=16, out_features=16, bias=True)
          (bn2): BatchNorm1d(16, eps=1e-05, momentum=0.1, affine=True, track_running_stats=True)
          (shortcut): Sequential()
        )
        (19): BasicBlock(
          (fc1): Linear(in_features=16, out_features=16, bias=True)
          (bn1): BatchNorm1d(16, eps=1e-05, momentum=0.1, affine=True, track_running_stats=True)
          (fc2): Linear(in_features=16, out_features=16, bias=True)
          (bn2): BatchNorm1d(16, eps=1e-05, momentum=0.1, affine=True, track_running_stats=True)
          (shortcut): Sequential()
        )
        (20): BasicBlock(
          (fc1): Linear(in_features=16, out_features=16, bias=True)
          (bn1): BatchNorm1d(16, eps=1e-05, momentum=0.1, affine=True, track_running_stats=True)
          (fc2): Linear(in_features=16, out_features=16, bias=True)
          (bn2): BatchNorm1d(16, eps=1e-05, momentum=0.1, affine=True, track_running_stats=True)
          (shortcut): Sequential()
        )
        (21): BasicBlock(
          (fc1): Linear(in_features=16, out_features=16, bias=True)
          (bn1): BatchNorm1d(16, eps=1e-05, momentum=0.1, affine=True, track_running_stats=True)
          (fc2): Linear(in_features=16, out_features=16, bias=True)
          (bn2): BatchNorm1d(16, eps=1e-05, momentum=0.1, affine=True, track_running_stats=True)
          (shortcut): Sequential()
        )
        (22): BasicBlock(
          (fc1): Linear(in_features=16, out_features=16, bias=True)
          (bn1): BatchNorm1d(16, eps=1e-05, momentum=0.1, affine=True, track_running_stats=True)
          (fc2): Linear(in_features=16, out_features=16, bias=True)
          (bn2): BatchNorm1d(16, eps=1e-05, momentum=0.1, affine=True, track_running_stats=True)
          (shortcut): Sequential()
        )
        (23): BasicBlock(
          (fc1): Linear(in_features=16, out_features=16, bias=True)
          (bn1): BatchNorm1d(16, eps=1e-05, momentum=0.1, affine=True, track_running_stats=True)
          (fc2): Linear(in_features=16, out_features=16, bias=True)
          (bn2): BatchNorm1d(16, eps=1e-05, momentum=0.1, affine=True, track_running_stats=True)
          (shortcut): Sequential()
        )
        (24): BasicBlock(
          (fc1): Linear(in_features=16, out_features=16, bias=True)
          (bn1): BatchNorm1d(16, eps=1e-05, momentum=0.1, affine=True, track_running_stats=True)
          (fc2): Linear(in_features=16, out_features=16, bias=True)
          (bn2): BatchNorm1d(16, eps=1e-05, momentum=0.1, affine=True, track_running_stats=True)
          (shortcut): Sequential()
        )
        (25): BasicBlock(
          (fc1): Linear(in_features=16, out_features=16, bias=True)
          (bn1): BatchNorm1d(16, eps=1e-05, momentum=0.1, affine=True, track_running_stats=True)
          (fc2): Linear(in_features=16, out_features=16, bias=True)
          (bn2): BatchNorm1d(16, eps=1e-05, momentum=0.1, affine=True, track_running_stats=True)
          (shortcut): Sequential()
        )
        (26): BasicBlock(
          (fc1): Linear(in_features=16, out_features=16, bias=True)
          (bn1): BatchNorm1d(16, eps=1e-05, momentum=0.1, affine=True, track_running_stats=True)
          (fc2): Linear(in_features=16, out_features=16, bias=True)
          (bn2): BatchNorm1d(16, eps=1e-05, momentum=0.1, affine=True, track_running_stats=True)
          (shortcut): Sequential()
        )
        (27): BasicBlock(
          (fc1): Linear(in_features=16, out_features=16, bias=True)
          (bn1): BatchNorm1d(16, eps=1e-05, momentum=0.1, affine=True, track_running_stats=True)
          (fc2): Linear(in_features=16, out_features=16, bias=True)
          (bn2): BatchNorm1d(16, eps=1e-05, momentum=0.1, affine=True, track_running_stats=True)
          (shortcut): Sequential()
        )
        (28): BasicBlock(
          (fc1): Linear(in_features=16, out_features=16, bias=True)
          (bn1): BatchNorm1d(16, eps=1e-05, momentum=0.1, affine=True, track_running_stats=True)
          (fc2): Linear(in_features=16, out_features=16, bias=True)
          (bn2): BatchNorm1d(16, eps=1e-05, momentum=0.1, affine=True, track_running_stats=True)
          (shortcut): Sequential()
        )
        (29): BasicBlock(
          (fc1): Linear(in_features=16, out_features=16, bias=True)
          (bn1): BatchNorm1d(16, eps=1e-05, momentum=0.1, affine=True, track_running_stats=True)
          (fc2): Linear(in_features=16, out_features=16, bias=True)
          (bn2): BatchNorm1d(16, eps=1e-05, momentum=0.1, affine=True, track_running_stats=True)
          (shortcut): Sequential()
        )
        (30): BasicBlock(
          (fc1): Linear(in_features=16, out_features=16, bias=True)
          (bn1): BatchNorm1d(16, eps=1e-05, momentum=0.1, affine=True, track_running_stats=True)
          (fc2): Linear(in_features=16, out_features=16, bias=True)
          (bn2): BatchNorm1d(16, eps=1e-05, momentum=0.1, affine=True, track_running_stats=True)
          (shortcut): Sequential()
        )
        (31): BasicBlock(
          (fc1): Linear(in_features=16, out_features=16, bias=True)
          (bn1): BatchNorm1d(16, eps=1e-05, momentum=0.1, affine=True, track_running_stats=True)
          (fc2): Linear(in_features=16, out_features=16, bias=True)
          (bn2): BatchNorm1d(16, eps=1e-05, momentum=0.1, affine=True, track_running_stats=True)
          (shortcut): Sequential()
        )
        (32): BasicBlock(
          (fc1): Linear(in_features=16, out_features=16, bias=True)
          (bn1): BatchNorm1d(16, eps=1e-05, momentum=0.1, affine=True, track_running_stats=True)
          (fc2): Linear(in_features=16, out_features=16, bias=True)
          (bn2): BatchNorm1d(16, eps=1e-05, momentum=0.1, affine=True, track_running_stats=True)
          (shortcut): Sequential()
        )
        (33): BasicBlock(
          (fc1): Linear(in_features=16, out_features=16, bias=True)
          (bn1): BatchNorm1d(16, eps=1e-05, momentum=0.1, affine=True, track_running_stats=True)
          (fc2): Linear(in_features=16, out_features=16, bias=True)
          (bn2): BatchNorm1d(16, eps=1e-05, momentum=0.1, affine=True, track_running_stats=True)
          (shortcut): Sequential()
        )
        (34): BasicBlock(
          (fc1): Linear(in_features=16, out_features=16, bias=True)
          (bn1): BatchNorm1d(16, eps=1e-05, momentum=0.1, affine=True, track_running_stats=True)
          (fc2): Linear(in_features=16, out_features=16, bias=True)
          (bn2): BatchNorm1d(16, eps=1e-05, momentum=0.1, affine=True, track_running_stats=True)
          (shortcut): Sequential()
        )
        (35): BasicBlock(
          (fc1): Linear(in_features=16, out_features=16, bias=True)
          (bn1): BatchNorm1d(16, eps=1e-05, momentum=0.1, affine=True, track_running_stats=True)
          (fc2): Linear(in_features=16, out_features=16, bias=True)
          (bn2): BatchNorm1d(16, eps=1e-05, momentum=0.1, affine=True, track_running_stats=True)
          (shortcut): Sequential()
        )
        (36): BasicBlock(
          (fc1): Linear(in_features=16, out_features=16, bias=True)
          (bn1): BatchNorm1d(16, eps=1e-05, momentum=0.1, affine=True, track_running_stats=True)
          (fc2): Linear(in_features=16, out_features=16, bias=True)
          (bn2): BatchNorm1d(16, eps=1e-05, momentum=0.1, affine=True, track_running_stats=True)
          (shortcut): Sequential()
        )
        (37): BasicBlock(
          (fc1): Linear(in_features=16, out_features=16, bias=True)
          (bn1): BatchNorm1d(16, eps=1e-05, momentum=0.1, affine=True, track_running_stats=True)
          (fc2): Linear(in_features=16, out_features=16, bias=True)
          (bn2): BatchNorm1d(16, eps=1e-05, momentum=0.1, affine=True, track_running_stats=True)
          (shortcut): Sequential()
        )
        (38): BasicBlock(
          (fc1): Linear(in_features=16, out_features=16, bias=True)
          (bn1): BatchNorm1d(16, eps=1e-05, momentum=0.1, affine=True, track_running_stats=True)
          (fc2): Linear(in_features=16, out_features=16, bias=True)
          (bn2): BatchNorm1d(16, eps=1e-05, momentum=0.1, affine=True, track_running_stats=True)
          (shortcut): Sequential()
        )
        (39): BasicBlock(
          (fc1): Linear(in_features=16, out_features=16, bias=True)
          (bn1): BatchNorm1d(16, eps=1e-05, momentum=0.1, affine=True, track_running_stats=True)
          (fc2): Linear(in_features=16, out_features=16, bias=True)
          (bn2): BatchNorm1d(16, eps=1e-05, momentum=0.1, affine=True, track_running_stats=True)
          (shortcut): Sequential()
        )
        (40): BasicBlock(
          (fc1): Linear(in_features=16, out_features=16, bias=True)
          (bn1): BatchNorm1d(16, eps=1e-05, momentum=0.1, affine=True, track_running_stats=True)
          (fc2): Linear(in_features=16, out_features=16, bias=True)
          (bn2): BatchNorm1d(16, eps=1e-05, momentum=0.1, affine=True, track_running_stats=True)
          (shortcut): Sequential()
        )
        (41): BasicBlock(
          (fc1): Linear(in_features=16, out_features=16, bias=True)
          (bn1): BatchNorm1d(16, eps=1e-05, momentum=0.1, affine=True, track_running_stats=True)
          (fc2): Linear(in_features=16, out_features=16, bias=True)
          (bn2): BatchNorm1d(16, eps=1e-05, momentum=0.1, affine=True, track_running_stats=True)
          (shortcut): Sequential()
        )
        (42): BasicBlock(
          (fc1): Linear(in_features=16, out_features=16, bias=True)
          (bn1): BatchNorm1d(16, eps=1e-05, momentum=0.1, affine=True, track_running_stats=True)
          (fc2): Linear(in_features=16, out_features=16, bias=True)
          (bn2): BatchNorm1d(16, eps=1e-05, momentum=0.1, affine=True, track_running_stats=True)
          (shortcut): Sequential()
        )
        (43): BasicBlock(
          (fc1): Linear(in_features=16, out_features=16, bias=True)
          (bn1): BatchNorm1d(16, eps=1e-05, momentum=0.1, affine=True, track_running_stats=True)
          (fc2): Linear(in_features=16, out_features=16, bias=True)
          (bn2): BatchNorm1d(16, eps=1e-05, momentum=0.1, affine=True, track_running_stats=True)
          (shortcut): Sequential()
        )
        (44): BasicBlock(
          (fc1): Linear(in_features=16, out_features=16, bias=True)
          (bn1): BatchNorm1d(16, eps=1e-05, momentum=0.1, affine=True, track_running_stats=True)
          (fc2): Linear(in_features=16, out_features=16, bias=True)
          (bn2): BatchNorm1d(16, eps=1e-05, momentum=0.1, affine=True, track_running_stats=True)
          (shortcut): Sequential()
        )
        (45): BasicBlock(
          (fc1): Linear(in_features=16, out_features=16, bias=True)
          (bn1): BatchNorm1d(16, eps=1e-05, momentum=0.1, affine=True, track_running_stats=True)
          (fc2): Linear(in_features=16, out_features=16, bias=True)
          (bn2): BatchNorm1d(16, eps=1e-05, momentum=0.1, affine=True, track_running_stats=True)
          (shortcut): Sequential()
        )
        (46): BasicBlock(
          (fc1): Linear(in_features=16, out_features=16, bias=True)
          (bn1): BatchNorm1d(16, eps=1e-05, momentum=0.1, affine=True, track_running_stats=True)
          (fc2): Linear(in_features=16, out_features=16, bias=True)
          (bn2): BatchNorm1d(16, eps=1e-05, momentum=0.1, affine=True, track_running_stats=True)
          (shortcut): Sequential()
        )
        (47): BasicBlock(
          (fc1): Linear(in_features=16, out_features=16, bias=True)
          (bn1): BatchNorm1d(16, eps=1e-05, momentum=0.1, affine=True, track_running_stats=True)
          (fc2): Linear(in_features=16, out_features=16, bias=True)
          (bn2): BatchNorm1d(16, eps=1e-05, momentum=0.1, affine=True, track_running_stats=True)
          (shortcut): Sequential()
        )
        (48): BasicBlock(
          (fc1): Linear(in_features=16, out_features=16, bias=True)
          (bn1): BatchNorm1d(16, eps=1e-05, momentum=0.1, affine=True, track_running_stats=True)
          (fc2): Linear(in_features=16, out_features=16, bias=True)
          (bn2): BatchNorm1d(16, eps=1e-05, momentum=0.1, affine=True, track_running_stats=True)
          (shortcut): Sequential()
        )
        (49): BasicBlock(
          (fc1): Linear(in_features=16, out_features=16, bias=True)
          (bn1): BatchNorm1d(16, eps=1e-05, momentum=0.1, affine=True, track_running_stats=True)
          (fc2): Linear(in_features=16, out_features=16, bias=True)
          (bn2): BatchNorm1d(16, eps=1e-05, momentum=0.1, affine=True, track_running_stats=True)
          (shortcut): Sequential()
        )
        (50): BasicBlock(
          (fc1): Linear(in_features=16, out_features=16, bias=True)
          (bn1): BatchNorm1d(16, eps=1e-05, momentum=0.1, affine=True, track_running_stats=True)
          (fc2): Linear(in_features=16, out_features=16, bias=True)
          (bn2): BatchNorm1d(16, eps=1e-05, momentum=0.1, affine=True, track_running_stats=True)
          (shortcut): Sequential()
        )
        (51): BasicBlock(
          (fc1): Linear(in_features=16, out_features=16, bias=True)
          (bn1): BatchNorm1d(16, eps=1e-05, momentum=0.1, affine=True, track_running_stats=True)
          (fc2): Linear(in_features=16, out_features=16, bias=True)
          (bn2): BatchNorm1d(16, eps=1e-05, momentum=0.1, affine=True, track_running_stats=True)
          (shortcut): Sequential()
        )
        (52): BasicBlock(
          (fc1): Linear(in_features=16, out_features=16, bias=True)
          (bn1): BatchNorm1d(16, eps=1e-05, momentum=0.1, affine=True, track_running_stats=True)
          (fc2): Linear(in_features=16, out_features=16, bias=True)
          (bn2): BatchNorm1d(16, eps=1e-05, momentum=0.1, affine=True, track_running_stats=True)
          (shortcut): Sequential()
        )
        (53): BasicBlock(
          (fc1): Linear(in_features=16, out_features=16, bias=True)
          (bn1): BatchNorm1d(16, eps=1e-05, momentum=0.1, affine=True, track_running_stats=True)
          (fc2): Linear(in_features=16, out_features=16, bias=True)
          (bn2): BatchNorm1d(16, eps=1e-05, momentum=0.1, affine=True, track_running_stats=True)
          (shortcut): Sequential()
        )
        (54): BasicBlock(
          (fc1): Linear(in_features=16, out_features=16, bias=True)
          (bn1): BatchNorm1d(16, eps=1e-05, momentum=0.1, affine=True, track_running_stats=True)
          (fc2): Linear(in_features=16, out_features=16, bias=True)
          (bn2): BatchNorm1d(16, eps=1e-05, momentum=0.1, affine=True, track_running_stats=True)
          (shortcut): Sequential()
        )
        (55): BasicBlock(
          (fc1): Linear(in_features=16, out_features=16, bias=True)
          (bn1): BatchNorm1d(16, eps=1e-05, momentum=0.1, affine=True, track_running_stats=True)
          (fc2): Linear(in_features=16, out_features=16, bias=True)
          (bn2): BatchNorm1d(16, eps=1e-05, momentum=0.1, affine=True, track_running_stats=True)
          (shortcut): Sequential()
        )
        (56): BasicBlock(
          (fc1): Linear(in_features=16, out_features=16, bias=True)
          (bn1): BatchNorm1d(16, eps=1e-05, momentum=0.1, affine=True, track_running_stats=True)
          (fc2): Linear(in_features=16, out_features=16, bias=True)
          (bn2): BatchNorm1d(16, eps=1e-05, momentum=0.1, affine=True, track_running_stats=True)
          (shortcut): Sequential()
        )
        (57): BasicBlock(
          (fc1): Linear(in_features=16, out_features=16, bias=True)
          (bn1): BatchNorm1d(16, eps=1e-05, momentum=0.1, affine=True, track_running_stats=True)
          (fc2): Linear(in_features=16, out_features=16, bias=True)
          (bn2): BatchNorm1d(16, eps=1e-05, momentum=0.1, affine=True, track_running_stats=True)
          (shortcut): Sequential()
        )
        (58): BasicBlock(
          (fc1): Linear(in_features=16, out_features=16, bias=True)
          (bn1): BatchNorm1d(16, eps=1e-05, momentum=0.1, affine=True, track_running_stats=True)
          (fc2): Linear(in_features=16, out_features=16, bias=True)
          (bn2): BatchNorm1d(16, eps=1e-05, momentum=0.1, affine=True, track_running_stats=True)
          (shortcut): Sequential()
        )
        (59): BasicBlock(
          (fc1): Linear(in_features=16, out_features=16, bias=True)
          (bn1): BatchNorm1d(16, eps=1e-05, momentum=0.1, affine=True, track_running_stats=True)
          (fc2): Linear(in_features=16, out_features=16, bias=True)
          (bn2): BatchNorm1d(16, eps=1e-05, momentum=0.1, affine=True, track_running_stats=True)
          (shortcut): Sequential()
        )
        (60): BasicBlock(
          (fc1): Linear(in_features=16, out_features=16, bias=True)
          (bn1): BatchNorm1d(16, eps=1e-05, momentum=0.1, affine=True, track_running_stats=True)
          (fc2): Linear(in_features=16, out_features=16, bias=True)
          (bn2): BatchNorm1d(16, eps=1e-05, momentum=0.1, affine=True, track_running_stats=True)
          (shortcut): Sequential()
        )
        (61): BasicBlock(
          (fc1): Linear(in_features=16, out_features=16, bias=True)
          (bn1): BatchNorm1d(16, eps=1e-05, momentum=0.1, affine=True, track_running_stats=True)
          (fc2): Linear(in_features=16, out_features=16, bias=True)
          (bn2): BatchNorm1d(16, eps=1e-05, momentum=0.1, affine=True, track_running_stats=True)
          (shortcut): Sequential()
        )
        (62): BasicBlock(
          (fc1): Linear(in_features=16, out_features=16, bias=True)
          (bn1): BatchNorm1d(16, eps=1e-05, momentum=0.1, affine=True, track_running_stats=True)
          (fc2): Linear(in_features=16, out_features=16, bias=True)
          (bn2): BatchNorm1d(16, eps=1e-05, momentum=0.1, affine=True, track_running_stats=True)
          (shortcut): Sequential()
        )
        (63): BasicBlock(
          (fc1): Linear(in_features=16, out_features=16, bias=True)
          (bn1): BatchNorm1d(16, eps=1e-05, momentum=0.1, affine=True, track_running_stats=True)
          (fc2): Linear(in_features=16, out_features=16, bias=True)
          (bn2): BatchNorm1d(16, eps=1e-05, momentum=0.1, affine=True, track_running_stats=True)
          (shortcut): Sequential()
        )
      )
      (layer2): Sequential(
        (0): BasicBlock(
          (fc1): Linear(in_features=16, out_features=32, bias=True)
          (bn1): BatchNorm1d(32, eps=1e-05, momentum=0.1, affine=True, track_running_stats=True)
          (fc2): Linear(in_features=32, out_features=32, bias=True)
          (bn2): BatchNorm1d(32, eps=1e-05, momentum=0.1, affine=True, track_running_stats=True)
          (shortcut): Sequential(
            (0): Linear(in_features=16, out_features=32, bias=True)
            (1): BatchNorm1d(32, eps=1e-05, momentum=0.1, affine=True, track_running_stats=True)
          )
        )
        (1): BasicBlock(
          (fc1): Linear(in_features=32, out_features=32, bias=True)
          (bn1): BatchNorm1d(32, eps=1e-05, momentum=0.1, affine=True, track_running_stats=True)
          (fc2): Linear(in_features=32, out_features=32, bias=True)
          (bn2): BatchNorm1d(32, eps=1e-05, momentum=0.1, affine=True, track_running_stats=True)
          (shortcut): Sequential()
        )
        (2): BasicBlock(
          (fc1): Linear(in_features=32, out_features=32, bias=True)
          (bn1): BatchNorm1d(32, eps=1e-05, momentum=0.1, affine=True, track_running_stats=True)
          (fc2): Linear(in_features=32, out_features=32, bias=True)
          (bn2): BatchNorm1d(32, eps=1e-05, momentum=0.1, affine=True, track_running_stats=True)
          (shortcut): Sequential()
        )
        (3): BasicBlock(
          (fc1): Linear(in_features=32, out_features=32, bias=True)
          (bn1): BatchNorm1d(32, eps=1e-05, momentum=0.1, affine=True, track_running_stats=True)
          (fc2): Linear(in_features=32, out_features=32, bias=True)
          (bn2): BatchNorm1d(32, eps=1e-05, momentum=0.1, affine=True, track_running_stats=True)
          (shortcut): Sequential()
        )
        (4): BasicBlock(
          (fc1): Linear(in_features=32, out_features=32, bias=True)
          (bn1): BatchNorm1d(32, eps=1e-05, momentum=0.1, affine=True, track_running_stats=True)
          (fc2): Linear(in_features=32, out_features=32, bias=True)
          (bn2): BatchNorm1d(32, eps=1e-05, momentum=0.1, affine=True, track_running_stats=True)
          (shortcut): Sequential()
        )
        (5): BasicBlock(
          (fc1): Linear(in_features=32, out_features=32, bias=True)
          (bn1): BatchNorm1d(32, eps=1e-05, momentum=0.1, affine=True, track_running_stats=True)
          (fc2): Linear(in_features=32, out_features=32, bias=True)
          (bn2): BatchNorm1d(32, eps=1e-05, momentum=0.1, affine=True, track_running_stats=True)
          (shortcut): Sequential()
        )
        (6): BasicBlock(
          (fc1): Linear(in_features=32, out_features=32, bias=True)
          (bn1): BatchNorm1d(32, eps=1e-05, momentum=0.1, affine=True, track_running_stats=True)
          (fc2): Linear(in_features=32, out_features=32, bias=True)
          (bn2): BatchNorm1d(32, eps=1e-05, momentum=0.1, affine=True, track_running_stats=True)
          (shortcut): Sequential()
        )
        (7): BasicBlock(
          (fc1): Linear(in_features=32, out_features=32, bias=True)
          (bn1): BatchNorm1d(32, eps=1e-05, momentum=0.1, affine=True, track_running_stats=True)
          (fc2): Linear(in_features=32, out_features=32, bias=True)
          (bn2): BatchNorm1d(32, eps=1e-05, momentum=0.1, affine=True, track_running_stats=True)
          (shortcut): Sequential()
        )
        (8): BasicBlock(
          (fc1): Linear(in_features=32, out_features=32, bias=True)
          (bn1): BatchNorm1d(32, eps=1e-05, momentum=0.1, affine=True, track_running_stats=True)
          (fc2): Linear(in_features=32, out_features=32, bias=True)
          (bn2): BatchNorm1d(32, eps=1e-05, momentum=0.1, affine=True, track_running_stats=True)
          (shortcut): Sequential()
        )
        (9): BasicBlock(
          (fc1): Linear(in_features=32, out_features=32, bias=True)
          (bn1): BatchNorm1d(32, eps=1e-05, momentum=0.1, affine=True, track_running_stats=True)
          (fc2): Linear(in_features=32, out_features=32, bias=True)
          (bn2): BatchNorm1d(32, eps=1e-05, momentum=0.1, affine=True, track_running_stats=True)
          (shortcut): Sequential()
        )
        (10): BasicBlock(
          (fc1): Linear(in_features=32, out_features=32, bias=True)
          (bn1): BatchNorm1d(32, eps=1e-05, momentum=0.1, affine=True, track_running_stats=True)
          (fc2): Linear(in_features=32, out_features=32, bias=True)
          (bn2): BatchNorm1d(32, eps=1e-05, momentum=0.1, affine=True, track_running_stats=True)
          (shortcut): Sequential()
        )
        (11): BasicBlock(
          (fc1): Linear(in_features=32, out_features=32, bias=True)
          (bn1): BatchNorm1d(32, eps=1e-05, momentum=0.1, affine=True, track_running_stats=True)
          (fc2): Linear(in_features=32, out_features=32, bias=True)
          (bn2): BatchNorm1d(32, eps=1e-05, momentum=0.1, affine=True, track_running_stats=True)
          (shortcut): Sequential()
        )
        (12): BasicBlock(
          (fc1): Linear(in_features=32, out_features=32, bias=True)
          (bn1): BatchNorm1d(32, eps=1e-05, momentum=0.1, affine=True, track_running_stats=True)
          (fc2): Linear(in_features=32, out_features=32, bias=True)
          (bn2): BatchNorm1d(32, eps=1e-05, momentum=0.1, affine=True, track_running_stats=True)
          (shortcut): Sequential()
        )
        (13): BasicBlock(
          (fc1): Linear(in_features=32, out_features=32, bias=True)
          (bn1): BatchNorm1d(32, eps=1e-05, momentum=0.1, affine=True, track_running_stats=True)
          (fc2): Linear(in_features=32, out_features=32, bias=True)
          (bn2): BatchNorm1d(32, eps=1e-05, momentum=0.1, affine=True, track_running_stats=True)
          (shortcut): Sequential()
        )
        (14): BasicBlock(
          (fc1): Linear(in_features=32, out_features=32, bias=True)
          (bn1): BatchNorm1d(32, eps=1e-05, momentum=0.1, affine=True, track_running_stats=True)
          (fc2): Linear(in_features=32, out_features=32, bias=True)
          (bn2): BatchNorm1d(32, eps=1e-05, momentum=0.1, affine=True, track_running_stats=True)
          (shortcut): Sequential()
        )
        (15): BasicBlock(
          (fc1): Linear(in_features=32, out_features=32, bias=True)
          (bn1): BatchNorm1d(32, eps=1e-05, momentum=0.1, affine=True, track_running_stats=True)
          (fc2): Linear(in_features=32, out_features=32, bias=True)
          (bn2): BatchNorm1d(32, eps=1e-05, momentum=0.1, affine=True, track_running_stats=True)
          (shortcut): Sequential()
        )
        (16): BasicBlock(
          (fc1): Linear(in_features=32, out_features=32, bias=True)
          (bn1): BatchNorm1d(32, eps=1e-05, momentum=0.1, affine=True, track_running_stats=True)
          (fc2): Linear(in_features=32, out_features=32, bias=True)
          (bn2): BatchNorm1d(32, eps=1e-05, momentum=0.1, affine=True, track_running_stats=True)
          (shortcut): Sequential()
        )
        (17): BasicBlock(
          (fc1): Linear(in_features=32, out_features=32, bias=True)
          (bn1): BatchNorm1d(32, eps=1e-05, momentum=0.1, affine=True, track_running_stats=True)
          (fc2): Linear(in_features=32, out_features=32, bias=True)
          (bn2): BatchNorm1d(32, eps=1e-05, momentum=0.1, affine=True, track_running_stats=True)
          (shortcut): Sequential()
        )
        (18): BasicBlock(
          (fc1): Linear(in_features=32, out_features=32, bias=True)
          (bn1): BatchNorm1d(32, eps=1e-05, momentum=0.1, affine=True, track_running_stats=True)
          (fc2): Linear(in_features=32, out_features=32, bias=True)
          (bn2): BatchNorm1d(32, eps=1e-05, momentum=0.1, affine=True, track_running_stats=True)
          (shortcut): Sequential()
        )
        (19): BasicBlock(
          (fc1): Linear(in_features=32, out_features=32, bias=True)
          (bn1): BatchNorm1d(32, eps=1e-05, momentum=0.1, affine=True, track_running_stats=True)
          (fc2): Linear(in_features=32, out_features=32, bias=True)
          (bn2): BatchNorm1d(32, eps=1e-05, momentum=0.1, affine=True, track_running_stats=True)
          (shortcut): Sequential()
        )
        (20): BasicBlock(
          (fc1): Linear(in_features=32, out_features=32, bias=True)
          (bn1): BatchNorm1d(32, eps=1e-05, momentum=0.1, affine=True, track_running_stats=True)
          (fc2): Linear(in_features=32, out_features=32, bias=True)
          (bn2): BatchNorm1d(32, eps=1e-05, momentum=0.1, affine=True, track_running_stats=True)
          (shortcut): Sequential()
        )
        (21): BasicBlock(
          (fc1): Linear(in_features=32, out_features=32, bias=True)
          (bn1): BatchNorm1d(32, eps=1e-05, momentum=0.1, affine=True, track_running_stats=True)
          (fc2): Linear(in_features=32, out_features=32, bias=True)
          (bn2): BatchNorm1d(32, eps=1e-05, momentum=0.1, affine=True, track_running_stats=True)
          (shortcut): Sequential()
        )
        (22): BasicBlock(
          (fc1): Linear(in_features=32, out_features=32, bias=True)
          (bn1): BatchNorm1d(32, eps=1e-05, momentum=0.1, affine=True, track_running_stats=True)
          (fc2): Linear(in_features=32, out_features=32, bias=True)
          (bn2): BatchNorm1d(32, eps=1e-05, momentum=0.1, affine=True, track_running_stats=True)
          (shortcut): Sequential()
        )
        (23): BasicBlock(
          (fc1): Linear(in_features=32, out_features=32, bias=True)
          (bn1): BatchNorm1d(32, eps=1e-05, momentum=0.1, affine=True, track_running_stats=True)
          (fc2): Linear(in_features=32, out_features=32, bias=True)
          (bn2): BatchNorm1d(32, eps=1e-05, momentum=0.1, affine=True, track_running_stats=True)
          (shortcut): Sequential()
        )
        (24): BasicBlock(
          (fc1): Linear(in_features=32, out_features=32, bias=True)
          (bn1): BatchNorm1d(32, eps=1e-05, momentum=0.1, affine=True, track_running_stats=True)
          (fc2): Linear(in_features=32, out_features=32, bias=True)
          (bn2): BatchNorm1d(32, eps=1e-05, momentum=0.1, affine=True, track_running_stats=True)
          (shortcut): Sequential()
        )
        (25): BasicBlock(
          (fc1): Linear(in_features=32, out_features=32, bias=True)
          (bn1): BatchNorm1d(32, eps=1e-05, momentum=0.1, affine=True, track_running_stats=True)
          (fc2): Linear(in_features=32, out_features=32, bias=True)
          (bn2): BatchNorm1d(32, eps=1e-05, momentum=0.1, affine=True, track_running_stats=True)
          (shortcut): Sequential()
        )
        (26): BasicBlock(
          (fc1): Linear(in_features=32, out_features=32, bias=True)
          (bn1): BatchNorm1d(32, eps=1e-05, momentum=0.1, affine=True, track_running_stats=True)
          (fc2): Linear(in_features=32, out_features=32, bias=True)
          (bn2): BatchNorm1d(32, eps=1e-05, momentum=0.1, affine=True, track_running_stats=True)
          (shortcut): Sequential()
        )
        (27): BasicBlock(
          (fc1): Linear(in_features=32, out_features=32, bias=True)
          (bn1): BatchNorm1d(32, eps=1e-05, momentum=0.1, affine=True, track_running_stats=True)
          (fc2): Linear(in_features=32, out_features=32, bias=True)
          (bn2): BatchNorm1d(32, eps=1e-05, momentum=0.1, affine=True, track_running_stats=True)
          (shortcut): Sequential()
        )
        (28): BasicBlock(
          (fc1): Linear(in_features=32, out_features=32, bias=True)
          (bn1): BatchNorm1d(32, eps=1e-05, momentum=0.1, affine=True, track_running_stats=True)
          (fc2): Linear(in_features=32, out_features=32, bias=True)
          (bn2): BatchNorm1d(32, eps=1e-05, momentum=0.1, affine=True, track_running_stats=True)
          (shortcut): Sequential()
        )
        (29): BasicBlock(
          (fc1): Linear(in_features=32, out_features=32, bias=True)
          (bn1): BatchNorm1d(32, eps=1e-05, momentum=0.1, affine=True, track_running_stats=True)
          (fc2): Linear(in_features=32, out_features=32, bias=True)
          (bn2): BatchNorm1d(32, eps=1e-05, momentum=0.1, affine=True, track_running_stats=True)
          (shortcut): Sequential()
        )
        (30): BasicBlock(
          (fc1): Linear(in_features=32, out_features=32, bias=True)
          (bn1): BatchNorm1d(32, eps=1e-05, momentum=0.1, affine=True, track_running_stats=True)
          (fc2): Linear(in_features=32, out_features=32, bias=True)
          (bn2): BatchNorm1d(32, eps=1e-05, momentum=0.1, affine=True, track_running_stats=True)
          (shortcut): Sequential()
        )
        (31): BasicBlock(
          (fc1): Linear(in_features=32, out_features=32, bias=True)
          (bn1): BatchNorm1d(32, eps=1e-05, momentum=0.1, affine=True, track_running_stats=True)
          (fc2): Linear(in_features=32, out_features=32, bias=True)
          (bn2): BatchNorm1d(32, eps=1e-05, momentum=0.1, affine=True, track_running_stats=True)
          (shortcut): Sequential()
        )
        (32): BasicBlock(
          (fc1): Linear(in_features=32, out_features=32, bias=True)
          (bn1): BatchNorm1d(32, eps=1e-05, momentum=0.1, affine=True, track_running_stats=True)
          (fc2): Linear(in_features=32, out_features=32, bias=True)
          (bn2): BatchNorm1d(32, eps=1e-05, momentum=0.1, affine=True, track_running_stats=True)
          (shortcut): Sequential()
        )
        (33): BasicBlock(
          (fc1): Linear(in_features=32, out_features=32, bias=True)
          (bn1): BatchNorm1d(32, eps=1e-05, momentum=0.1, affine=True, track_running_stats=True)
          (fc2): Linear(in_features=32, out_features=32, bias=True)
          (bn2): BatchNorm1d(32, eps=1e-05, momentum=0.1, affine=True, track_running_stats=True)
          (shortcut): Sequential()
        )
        (34): BasicBlock(
          (fc1): Linear(in_features=32, out_features=32, bias=True)
          (bn1): BatchNorm1d(32, eps=1e-05, momentum=0.1, affine=True, track_running_stats=True)
          (fc2): Linear(in_features=32, out_features=32, bias=True)
          (bn2): BatchNorm1d(32, eps=1e-05, momentum=0.1, affine=True, track_running_stats=True)
          (shortcut): Sequential()
        )
        (35): BasicBlock(
          (fc1): Linear(in_features=32, out_features=32, bias=True)
          (bn1): BatchNorm1d(32, eps=1e-05, momentum=0.1, affine=True, track_running_stats=True)
          (fc2): Linear(in_features=32, out_features=32, bias=True)
          (bn2): BatchNorm1d(32, eps=1e-05, momentum=0.1, affine=True, track_running_stats=True)
          (shortcut): Sequential()
        )
        (36): BasicBlock(
          (fc1): Linear(in_features=32, out_features=32, bias=True)
          (bn1): BatchNorm1d(32, eps=1e-05, momentum=0.1, affine=True, track_running_stats=True)
          (fc2): Linear(in_features=32, out_features=32, bias=True)
          (bn2): BatchNorm1d(32, eps=1e-05, momentum=0.1, affine=True, track_running_stats=True)
          (shortcut): Sequential()
        )
        (37): BasicBlock(
          (fc1): Linear(in_features=32, out_features=32, bias=True)
          (bn1): BatchNorm1d(32, eps=1e-05, momentum=0.1, affine=True, track_running_stats=True)
          (fc2): Linear(in_features=32, out_features=32, bias=True)
          (bn2): BatchNorm1d(32, eps=1e-05, momentum=0.1, affine=True, track_running_stats=True)
          (shortcut): Sequential()
        )
        (38): BasicBlock(
          (fc1): Linear(in_features=32, out_features=32, bias=True)
          (bn1): BatchNorm1d(32, eps=1e-05, momentum=0.1, affine=True, track_running_stats=True)
          (fc2): Linear(in_features=32, out_features=32, bias=True)
          (bn2): BatchNorm1d(32, eps=1e-05, momentum=0.1, affine=True, track_running_stats=True)
          (shortcut): Sequential()
        )
        (39): BasicBlock(
          (fc1): Linear(in_features=32, out_features=32, bias=True)
          (bn1): BatchNorm1d(32, eps=1e-05, momentum=0.1, affine=True, track_running_stats=True)
          (fc2): Linear(in_features=32, out_features=32, bias=True)
          (bn2): BatchNorm1d(32, eps=1e-05, momentum=0.1, affine=True, track_running_stats=True)
          (shortcut): Sequential()
        )
        (40): BasicBlock(
          (fc1): Linear(in_features=32, out_features=32, bias=True)
          (bn1): BatchNorm1d(32, eps=1e-05, momentum=0.1, affine=True, track_running_stats=True)
          (fc2): Linear(in_features=32, out_features=32, bias=True)
          (bn2): BatchNorm1d(32, eps=1e-05, momentum=0.1, affine=True, track_running_stats=True)
          (shortcut): Sequential()
        )
        (41): BasicBlock(
          (fc1): Linear(in_features=32, out_features=32, bias=True)
          (bn1): BatchNorm1d(32, eps=1e-05, momentum=0.1, affine=True, track_running_stats=True)
          (fc2): Linear(in_features=32, out_features=32, bias=True)
          (bn2): BatchNorm1d(32, eps=1e-05, momentum=0.1, affine=True, track_running_stats=True)
          (shortcut): Sequential()
        )
        (42): BasicBlock(
          (fc1): Linear(in_features=32, out_features=32, bias=True)
          (bn1): BatchNorm1d(32, eps=1e-05, momentum=0.1, affine=True, track_running_stats=True)
          (fc2): Linear(in_features=32, out_features=32, bias=True)
          (bn2): BatchNorm1d(32, eps=1e-05, momentum=0.1, affine=True, track_running_stats=True)
          (shortcut): Sequential()
        )
        (43): BasicBlock(
          (fc1): Linear(in_features=32, out_features=32, bias=True)
          (bn1): BatchNorm1d(32, eps=1e-05, momentum=0.1, affine=True, track_running_stats=True)
          (fc2): Linear(in_features=32, out_features=32, bias=True)
          (bn2): BatchNorm1d(32, eps=1e-05, momentum=0.1, affine=True, track_running_stats=True)
          (shortcut): Sequential()
        )
        (44): BasicBlock(
          (fc1): Linear(in_features=32, out_features=32, bias=True)
          (bn1): BatchNorm1d(32, eps=1e-05, momentum=0.1, affine=True, track_running_stats=True)
          (fc2): Linear(in_features=32, out_features=32, bias=True)
          (bn2): BatchNorm1d(32, eps=1e-05, momentum=0.1, affine=True, track_running_stats=True)
          (shortcut): Sequential()
        )
        (45): BasicBlock(
          (fc1): Linear(in_features=32, out_features=32, bias=True)
          (bn1): BatchNorm1d(32, eps=1e-05, momentum=0.1, affine=True, track_running_stats=True)
          (fc2): Linear(in_features=32, out_features=32, bias=True)
          (bn2): BatchNorm1d(32, eps=1e-05, momentum=0.1, affine=True, track_running_stats=True)
          (shortcut): Sequential()
        )
        (46): BasicBlock(
          (fc1): Linear(in_features=32, out_features=32, bias=True)
          (bn1): BatchNorm1d(32, eps=1e-05, momentum=0.1, affine=True, track_running_stats=True)
          (fc2): Linear(in_features=32, out_features=32, bias=True)
          (bn2): BatchNorm1d(32, eps=1e-05, momentum=0.1, affine=True, track_running_stats=True)
          (shortcut): Sequential()
        )
        (47): BasicBlock(
          (fc1): Linear(in_features=32, out_features=32, bias=True)
          (bn1): BatchNorm1d(32, eps=1e-05, momentum=0.1, affine=True, track_running_stats=True)
          (fc2): Linear(in_features=32, out_features=32, bias=True)
          (bn2): BatchNorm1d(32, eps=1e-05, momentum=0.1, affine=True, track_running_stats=True)
          (shortcut): Sequential()
        )
        (48): BasicBlock(
          (fc1): Linear(in_features=32, out_features=32, bias=True)
          (bn1): BatchNorm1d(32, eps=1e-05, momentum=0.1, affine=True, track_running_stats=True)
          (fc2): Linear(in_features=32, out_features=32, bias=True)
          (bn2): BatchNorm1d(32, eps=1e-05, momentum=0.1, affine=True, track_running_stats=True)
          (shortcut): Sequential()
        )
        (49): BasicBlock(
          (fc1): Linear(in_features=32, out_features=32, bias=True)
          (bn1): BatchNorm1d(32, eps=1e-05, momentum=0.1, affine=True, track_running_stats=True)
          (fc2): Linear(in_features=32, out_features=32, bias=True)
          (bn2): BatchNorm1d(32, eps=1e-05, momentum=0.1, affine=True, track_running_stats=True)
          (shortcut): Sequential()
        )
        (50): BasicBlock(
          (fc1): Linear(in_features=32, out_features=32, bias=True)
          (bn1): BatchNorm1d(32, eps=1e-05, momentum=0.1, affine=True, track_running_stats=True)
          (fc2): Linear(in_features=32, out_features=32, bias=True)
          (bn2): BatchNorm1d(32, eps=1e-05, momentum=0.1, affine=True, track_running_stats=True)
          (shortcut): Sequential()
        )
        (51): BasicBlock(
          (fc1): Linear(in_features=32, out_features=32, bias=True)
          (bn1): BatchNorm1d(32, eps=1e-05, momentum=0.1, affine=True, track_running_stats=True)
          (fc2): Linear(in_features=32, out_features=32, bias=True)
          (bn2): BatchNorm1d(32, eps=1e-05, momentum=0.1, affine=True, track_running_stats=True)
          (shortcut): Sequential()
        )
        (52): BasicBlock(
          (fc1): Linear(in_features=32, out_features=32, bias=True)
          (bn1): BatchNorm1d(32, eps=1e-05, momentum=0.1, affine=True, track_running_stats=True)
          (fc2): Linear(in_features=32, out_features=32, bias=True)
          (bn2): BatchNorm1d(32, eps=1e-05, momentum=0.1, affine=True, track_running_stats=True)
          (shortcut): Sequential()
        )
        (53): BasicBlock(
          (fc1): Linear(in_features=32, out_features=32, bias=True)
          (bn1): BatchNorm1d(32, eps=1e-05, momentum=0.1, affine=True, track_running_stats=True)
          (fc2): Linear(in_features=32, out_features=32, bias=True)
          (bn2): BatchNorm1d(32, eps=1e-05, momentum=0.1, affine=True, track_running_stats=True)
          (shortcut): Sequential()
        )
        (54): BasicBlock(
          (fc1): Linear(in_features=32, out_features=32, bias=True)
          (bn1): BatchNorm1d(32, eps=1e-05, momentum=0.1, affine=True, track_running_stats=True)
          (fc2): Linear(in_features=32, out_features=32, bias=True)
          (bn2): BatchNorm1d(32, eps=1e-05, momentum=0.1, affine=True, track_running_stats=True)
          (shortcut): Sequential()
        )
        (55): BasicBlock(
          (fc1): Linear(in_features=32, out_features=32, bias=True)
          (bn1): BatchNorm1d(32, eps=1e-05, momentum=0.1, affine=True, track_running_stats=True)
          (fc2): Linear(in_features=32, out_features=32, bias=True)
          (bn2): BatchNorm1d(32, eps=1e-05, momentum=0.1, affine=True, track_running_stats=True)
          (shortcut): Sequential()
        )
        (56): BasicBlock(
          (fc1): Linear(in_features=32, out_features=32, bias=True)
          (bn1): BatchNorm1d(32, eps=1e-05, momentum=0.1, affine=True, track_running_stats=True)
          (fc2): Linear(in_features=32, out_features=32, bias=True)
          (bn2): BatchNorm1d(32, eps=1e-05, momentum=0.1, affine=True, track_running_stats=True)
          (shortcut): Sequential()
        )
        (57): BasicBlock(
          (fc1): Linear(in_features=32, out_features=32, bias=True)
          (bn1): BatchNorm1d(32, eps=1e-05, momentum=0.1, affine=True, track_running_stats=True)
          (fc2): Linear(in_features=32, out_features=32, bias=True)
          (bn2): BatchNorm1d(32, eps=1e-05, momentum=0.1, affine=True, track_running_stats=True)
          (shortcut): Sequential()
        )
        (58): BasicBlock(
          (fc1): Linear(in_features=32, out_features=32, bias=True)
          (bn1): BatchNorm1d(32, eps=1e-05, momentum=0.1, affine=True, track_running_stats=True)
          (fc2): Linear(in_features=32, out_features=32, bias=True)
          (bn2): BatchNorm1d(32, eps=1e-05, momentum=0.1, affine=True, track_running_stats=True)
          (shortcut): Sequential()
        )
        (59): BasicBlock(
          (fc1): Linear(in_features=32, out_features=32, bias=True)
          (bn1): BatchNorm1d(32, eps=1e-05, momentum=0.1, affine=True, track_running_stats=True)
          (fc2): Linear(in_features=32, out_features=32, bias=True)
          (bn2): BatchNorm1d(32, eps=1e-05, momentum=0.1, affine=True, track_running_stats=True)
          (shortcut): Sequential()
        )
        (60): BasicBlock(
          (fc1): Linear(in_features=32, out_features=32, bias=True)
          (bn1): BatchNorm1d(32, eps=1e-05, momentum=0.1, affine=True, track_running_stats=True)
          (fc2): Linear(in_features=32, out_features=32, bias=True)
          (bn2): BatchNorm1d(32, eps=1e-05, momentum=0.1, affine=True, track_running_stats=True)
          (shortcut): Sequential()
        )
        (61): BasicBlock(
          (fc1): Linear(in_features=32, out_features=32, bias=True)
          (bn1): BatchNorm1d(32, eps=1e-05, momentum=0.1, affine=True, track_running_stats=True)
          (fc2): Linear(in_features=32, out_features=32, bias=True)
          (bn2): BatchNorm1d(32, eps=1e-05, momentum=0.1, affine=True, track_running_stats=True)
          (shortcut): Sequential()
        )
        (62): BasicBlock(
          (fc1): Linear(in_features=32, out_features=32, bias=True)
          (bn1): BatchNorm1d(32, eps=1e-05, momentum=0.1, affine=True, track_running_stats=True)
          (fc2): Linear(in_features=32, out_features=32, bias=True)
          (bn2): BatchNorm1d(32, eps=1e-05, momentum=0.1, affine=True, track_running_stats=True)
          (shortcut): Sequential()
        )
        (63): BasicBlock(
          (fc1): Linear(in_features=32, out_features=32, bias=True)
          (bn1): BatchNorm1d(32, eps=1e-05, momentum=0.1, affine=True, track_running_stats=True)
          (fc2): Linear(in_features=32, out_features=32, bias=True)
          (bn2): BatchNorm1d(32, eps=1e-05, momentum=0.1, affine=True, track_running_stats=True)
          (shortcut): Sequential()
        )
      )
      (layer3): Sequential(
        (0): BasicBlock(
          (fc1): Linear(in_features=32, out_features=64, bias=True)
          (bn1): BatchNorm1d(64, eps=1e-05, momentum=0.1, affine=True, track_running_stats=True)
          (fc2): Linear(in_features=64, out_features=64, bias=True)
          (bn2): BatchNorm1d(64, eps=1e-05, momentum=0.1, affine=True, track_running_stats=True)
          (shortcut): Sequential(
            (0): Linear(in_features=32, out_features=64, bias=True)
            (1): BatchNorm1d(64, eps=1e-05, momentum=0.1, affine=True, track_running_stats=True)
          )
        )
        (1): BasicBlock(
          (fc1): Linear(in_features=64, out_features=64, bias=True)
          (bn1): BatchNorm1d(64, eps=1e-05, momentum=0.1, affine=True, track_running_stats=True)
          (fc2): Linear(in_features=64, out_features=64, bias=True)
          (bn2): BatchNorm1d(64, eps=1e-05, momentum=0.1, affine=True, track_running_stats=True)
          (shortcut): Sequential()
        )
        (2): BasicBlock(
          (fc1): Linear(in_features=64, out_features=64, bias=True)
          (bn1): BatchNorm1d(64, eps=1e-05, momentum=0.1, affine=True, track_running_stats=True)
          (fc2): Linear(in_features=64, out_features=64, bias=True)
          (bn2): BatchNorm1d(64, eps=1e-05, momentum=0.1, affine=True, track_running_stats=True)
          (shortcut): Sequential()
        )
        (3): BasicBlock(
          (fc1): Linear(in_features=64, out_features=64, bias=True)
          (bn1): BatchNorm1d(64, eps=1e-05, momentum=0.1, affine=True, track_running_stats=True)
          (fc2): Linear(in_features=64, out_features=64, bias=True)
          (bn2): BatchNorm1d(64, eps=1e-05, momentum=0.1, affine=True, track_running_stats=True)
          (shortcut): Sequential()
        )
        (4): BasicBlock(
          (fc1): Linear(in_features=64, out_features=64, bias=True)
          (bn1): BatchNorm1d(64, eps=1e-05, momentum=0.1, affine=True, track_running_stats=True)
          (fc2): Linear(in_features=64, out_features=64, bias=True)
          (bn2): BatchNorm1d(64, eps=1e-05, momentum=0.1, affine=True, track_running_stats=True)
          (shortcut): Sequential()
        )
        (5): BasicBlock(
          (fc1): Linear(in_features=64, out_features=64, bias=True)
          (bn1): BatchNorm1d(64, eps=1e-05, momentum=0.1, affine=True, track_running_stats=True)
          (fc2): Linear(in_features=64, out_features=64, bias=True)
          (bn2): BatchNorm1d(64, eps=1e-05, momentum=0.1, affine=True, track_running_stats=True)
          (shortcut): Sequential()
        )
      )
      (linear): Linear(in_features=64, out_features=20, bias=True)
    )
  )
  (Q_matrix): ParamSpecialOrthogonalMatrix(
    (skew_symmetric_matrix): ParamSkewSymmetricMatrix(
      (resnet): ResNet(
        (layer1): Sequential(
          (0): BasicBlock2(
            (fc1): Linear(in_features=2, out_features=16, bias=True)
            (fc2): Linear(in_features=16, out_features=16, bias=True)
            (shortcut): Sequential(
              (0): Linear(in_features=2, out_features=16, bias=True)
            )
          )
          (1): BasicBlock2(
            (fc1): Linear(in_features=16, out_features=16, bias=True)
            (fc2): Linear(in_features=16, out_features=16, bias=True)
            (shortcut): Sequential()
          )
        )
        (layer2): Sequential(
          (0): BasicBlock2(
            (fc1): Linear(in_features=16, out_features=32, bias=True)
            (fc2): Linear(in_features=32, out_features=32, bias=True)
            (shortcut): Sequential(
              (0): Linear(in_features=16, out_features=32, bias=True)
            )
          )
          (1): BasicBlock2(
            (fc1): Linear(in_features=32, out_features=32, bias=True)
            (fc2): Linear(in_features=32, out_features=32, bias=True)
            (shortcut): Sequential()
          )
        )
        (layer3): Sequential(
          (0): BasicBlock2(
            (fc1): Linear(in_features=32, out_features=64, bias=True)
            (fc2): Linear(in_features=64, out_features=64, bias=True)
            (shortcut): Sequential(
              (0): Linear(in_features=32, out_features=64, bias=True)
            )
          )
          (1): BasicBlock2(
            (fc1): Linear(in_features=64, out_features=64, bias=True)
            (fc2): Linear(in_features=64, out_features=64, bias=True)
            (shortcut): Sequential()
          )
        )
        (linear): Linear(in_features=64, out_features=1225, bias=True)
      )
    )
  )
  (T_matrix): ParamBlockDiagonalMatrixWoV(
    (resnet): ResNet(
      (layer1): Sequential(
        (0): BasicBlock2(
          (fc1): Linear(in_features=2, out_features=16, bias=True)
          (fc2): Linear(in_features=16, out_features=16, bias=True)
          (shortcut): Sequential(
            (0): Linear(in_features=2, out_features=16, bias=True)
          )
        )
        (1): BasicBlock2(
          (fc1): Linear(in_features=16, out_features=16, bias=True)
          (fc2): Linear(in_features=16, out_features=16, bias=True)
          (shortcut): Sequential()
        )
      )
      (layer2): Sequential(
        (0): BasicBlock2(
          (fc1): Linear(in_features=16, out_features=32, bias=True)
          (fc2): Linear(in_features=32, out_features=32, bias=True)
          (shortcut): Sequential(
            (0): Linear(in_features=16, out_features=32, bias=True)
          )
        )
        (1): BasicBlock2(
          (fc1): Linear(in_features=32, out_features=32, bias=True)
          (fc2): Linear(in_features=32, out_features=32, bias=True)
          (shortcut): Sequential()
        )
      )
      (layer3): Sequential(
        (0): BasicBlock2(
          (fc1): Linear(in_features=32, out_features=64, bias=True)
          (fc2): Linear(in_features=64, out_features=64, bias=True)
          (shortcut): Sequential(
            (0): Linear(in_features=32, out_features=64, bias=True)
          )
        )
        (1): BasicBlock2(
          (fc1): Linear(in_features=64, out_features=64, bias=True)
          (fc2): Linear(in_features=64, out_features=64, bias=True)
          (shortcut): Sequential()
        )
      )
      (linear): Linear(in_features=64, out_features=25, bias=True)
    )
  )
  (B_matrix): ParamMatrix(
    (resnet): ResNet(
      (layer1): Sequential(
        (0): BasicBlock2(
          (fc1): Linear(in_features=2, out_features=16, bias=True)
          (fc2): Linear(in_features=16, out_features=16, bias=True)
          (shortcut): Sequential(
            (0): Linear(in_features=2, out_features=16, bias=True)
          )
        )
        (1): BasicBlock2(
          (fc1): Linear(in_features=16, out_features=16, bias=True)
          (fc2): Linear(in_features=16, out_features=16, bias=True)
          (shortcut): Sequential()
        )
      )
      (layer2): Sequential(
        (0): BasicBlock2(
          (fc1): Linear(in_features=16, out_features=32, bias=True)
          (fc2): Linear(in_features=32, out_features=32, bias=True)
          (shortcut): Sequential(
            (0): Linear(in_features=16, out_features=32, bias=True)
          )
        )
        (1): BasicBlock2(
          (fc1): Linear(in_features=32, out_features=32, bias=True)
          (fc2): Linear(in_features=32, out_features=32, bias=True)
          (shortcut): Sequential()
        )
      )
      (layer3): Sequential(
        (0): BasicBlock2(
          (fc1): Linear(in_features=32, out_features=64, bias=True)
          (fc2): Linear(in_features=64, out_features=64, bias=True)
          (shortcut): Sequential(
            (0): Linear(in_features=32, out_features=64, bias=True)
          )
        )
        (1): BasicBlock2(
          (fc1): Linear(in_features=64, out_features=64, bias=True)
          (fc2): Linear(in_features=64, out_features=64, bias=True)
          (shortcut): Sequential()
        )
      )
      (linear): Linear(in_features=64, out_features=1150, bias=True)
    )
  )
)
Optimizer: Adam (
Parameter Group 0
    amsgrad: False
    betas: (0.9, 0.999)
    capturable: False
    differentiable: False
    eps: 1e-08
    foreach: None
    fused: None
    initial_lr: 0.001
    lr: 0.001
    maximize: False
    weight_decay: 0
)
StepLR: <torch.optim.lr_scheduler.StepLR object at 0x7663461606d0>
Device: cuda
Config: 
…
