Model: ParamOrthogonalKoopmanWithInputs(
  (dictionary): TrainableDictionary(
    (resnet): ResNet(
      (layer1): Sequential(
        (0): BasicBlock(
          (fc1): Linear(in_features=4, out_features=16, bias=True)
          (bn1): BatchNorm1d(16, eps=1e-05, momentum=0.1, affine=True, track_running_stats=True)
          (fc2): Linear(in_features=16, out_features=16, bias=True)
          (bn2): BatchNorm1d(16, eps=1e-05, momentum=0.1, affine=True, track_running_stats=True)
          (shortcut): Sequential(
            (0): Linear(in_features=4, out_features=16, bias=True)
            (1): BatchNorm1d(16, eps=1e-05, momentum=0.1, affine=True, track_running_stats=True)
          )
        )
        (1): BasicBlock(
          (fc1): Linear(in_features=16, out_features=16, bias=True)
          (bn1): BatchNorm1d(16, eps=1e-05, momentum=0.1, affine=True, track_running_stats=True)
          (fc2): Linear(in_features=16, out_features=16, bias=True)
          (bn2): BatchNorm1d(16, eps=1e-05, momentum=0.1, affine=True, track_running_stats=True)
          (shortcut): Sequential()
        )
      )
      (layer2): Sequential(
        (0): BasicBlock(
          (fc1): Linear(in_features=16, out_features=32, bias=True)
          (bn1): BatchNorm1d(32, eps=1e-05, momentum=0.1, affine=True, track_running_stats=True)
          (fc2): Linear(in_features=32, out_features=32, bias=True)
          (bn2): BatchNorm1d(32, eps=1e-05, momentum=0.1, affine=True, track_running_stats=True)
          (shortcut): Sequential(
            (0): Linear(in_features=16, out_features=32, bias=True)
            (1): BatchNorm1d(32, eps=1e-05, momentum=0.1, affine=True, track_running_stats=True)
          )
        )
        (1): BasicBlock(
          (fc1): Linear(in_features=32, out_features=32, bias=True)
          (bn1): BatchNorm1d(32, eps=1e-05, momentum=0.1, affine=True, track_running_stats=True)
          (fc2): Linear(in_features=32, out_features=32, bias=True)
          (bn2): BatchNorm1d(32, eps=1e-05, momentum=0.1, affine=True, track_running_stats=True)
          (shortcut): Sequential()
        )
      )
      (layer3): Sequential(
        (0): BasicBlock(
          (fc1): Linear(in_features=32, out_features=64, bias=True)
          (bn1): BatchNorm1d(64, eps=1e-05, momentum=0.1, affine=True, track_running_stats=True)
          (fc2): Linear(in_features=64, out_features=64, bias=True)
          (bn2): BatchNorm1d(64, eps=1e-05, momentum=0.1, affine=True, track_running_stats=True)
          (shortcut): Sequential(
            (0): Linear(in_features=32, out_features=64, bias=True)
            (1): BatchNorm1d(64, eps=1e-05, momentum=0.1, affine=True, track_running_stats=True)
          )
        )
        (1): BasicBlock(
          (fc1): Linear(in_features=64, out_features=64, bias=True)
          (bn1): BatchNorm1d(64, eps=1e-05, momentum=0.1, affine=True, track_running_stats=True)
          (fc2): Linear(in_features=64, out_features=64, bias=True)
          (bn2): BatchNorm1d(64, eps=1e-05, momentum=0.1, affine=True, track_running_stats=True)
          (shortcut): Sequential()
        )
      )
      (linear): Linear(in_features=64, out_features=45, bias=True)
    )
  )
  (Q_matrix): ParamSpecialOrthogonalMatrix(
    (skew_symmetric_matrix): ParamSkewSymmetricMatrix(
      (resnet): ResNet(
        (layer1): Sequential(
          (0): BasicBlock(
            (fc1): Linear(in_features=2, out_features=16, bias=True)
            (bn1): BatchNorm1d(16, eps=1e-05, momentum=0.1, affine=True, track_running_stats=True)
            (fc2): Linear(in_features=16, out_features=16, bias=True)
            (bn2): BatchNorm1d(16, eps=1e-05, momentum=0.1, affine=True, track_running_stats=True)
            (shortcut): Sequential(
              (0): Linear(in_features=2, out_features=16, bias=True)
              (1): BatchNorm1d(16, eps=1e-05, momentum=0.1, affine=True, track_running_stats=True)
            )
          )
          (1): BasicBlock(
            (fc1): Linear(in_features=16, out_features=16, bias=True)
            (bn1): BatchNorm1d(16, eps=1e-05, momentum=0.1, affine=True, track_running_stats=True)
            (fc2): Linear(in_features=16, out_features=16, bias=True)
            (bn2): BatchNorm1d(16, eps=1e-05, momentum=0.1, affine=True, track_running_stats=True)
            (shortcut): Sequential()
          )
        )
        (layer2): Sequential(
          (0): BasicBlock(
            (fc1): Linear(in_features=16, out_features=32, bias=True)
            (bn1): BatchNorm1d(32, eps=1e-05, momentum=0.1, affine=True, track_running_stats=True)
            (fc2): Linear(in_features=32, out_features=32, bias=True)
            (bn2): BatchNorm1d(32, eps=1e-05, momentum=0.1, affine=True, track_running_stats=True)
            (shortcut): Sequential(
              (0): Linear(in_features=16, out_features=32, bias=True)
              (1): BatchNorm1d(32, eps=1e-05, momentum=0.1, affine=True, track_running_stats=True)
            )
          )
          (1): BasicBlock(
            (fc1): Linear(in_features=32, out_features=32, bias=True)
            (bn1): BatchNorm1d(32, eps=1e-05, momentum=0.1, affine=True, track_running_stats=True)
            (fc2): Linear(in_features=32, out_features=32, bias=True)
            (bn2): BatchNorm1d(32, eps=1e-05, momentum=0.1, affine=True, track_running_stats=True)
            (shortcut): Sequential()
          )
        )
        (layer3): Sequential(
          (0): BasicBlock(
            (fc1): Linear(in_features=32, out_features=64, bias=True)
            (bn1): BatchNorm1d(64, eps=1e-05, momentum=0.1, affine=True, track_running_stats=True)
            (fc2): Linear(in_features=64, out_features=64, bias=True)
            (bn2): BatchNorm1d(64, eps=1e-05, momentum=0.1, affine=True, track_running_stats=True)
            (shortcut): Sequential(
              (0): Linear(in_features=32, out_features=64, bias=True)
              (1): BatchNorm1d(64, eps=1e-05, momentum=0.1, affine=True, track_running_stats=True)
            )
          )
          (1): BasicBlock(
            (fc1): Linear(in_features=64, out_features=64, bias=True)
            (bn1): BatchNorm1d(64, eps=1e-05, momentum=0.1, affine=True, track_running_stats=True)
            (fc2): Linear(in_features=64, out_features=64, bias=True)
            (bn2): BatchNorm1d(64, eps=1e-05, momentum=0.1, affine=True, track_running_stats=True)
            (shortcut): Sequential()
          )
        )
        (linear): Linear(in_features=64, out_features=1225, bias=True)
      )
    )
  )
  (T_matrix): ParamBlockDiagonalMatrixWoV(
    (resnet): ResNet(
      (layer1): Sequential(
        (0): BasicBlock(
          (fc1): Linear(in_features=2, out_features=16, bias=True)
          (bn1): BatchNorm1d(16, eps=1e-05, momentum=0.1, affine=True, track_running_stats=True)
          (fc2): Linear(in_features=16, out_features=16, bias=True)
          (bn2): BatchNorm1d(16, eps=1e-05, momentum=0.1, affine=True, track_running_stats=True)
          (shortcut): Sequential(
            (0): Linear(in_features=2, out_features=16, bias=True)
            (1): BatchNorm1d(16, eps=1e-05, momentum=0.1, affine=True, track_running_stats=True)
          )
        )
        (1): BasicBlock(
          (fc1): Linear(in_features=16, out_features=16, bias=True)
          (bn1): BatchNorm1d(16, eps=1e-05, momentum=0.1, affine=True, track_running_stats=True)
          (fc2): Linear(in_features=16, out_features=16, bias=True)
          (bn2): BatchNorm1d(16, eps=1e-05, momentum=0.1, affine=True, track_running_stats=True)
          (shortcut): Sequential()
        )
      )
      (layer2): Sequential(
        (0): BasicBlock(
          (fc1): Linear(in_features=16, out_features=32, bias=True)
          (bn1): BatchNorm1d(32, eps=1e-05, momentum=0.1, affine=True, track_running_stats=True)
          (fc2): Linear(in_features=32, out_features=32, bias=True)
          (bn2): BatchNorm1d(32, eps=1e-05, momentum=0.1, affine=True, track_running_stats=True)
          (shortcut): Sequential(
            (0): Linear(in_features=16, out_features=32, bias=True)
            (1): BatchNorm1d(32, eps=1e-05, momentum=0.1, affine=True, track_running_stats=True)
          )
        )
        (1): BasicBlock(
          (fc1): Linear(in_features=32, out_features=32, bias=True)
          (bn1): BatchNorm1d(32, eps=1e-05, momentum=0.1, affine=True, track_running_stats=True)
          (fc2): Linear(in_features=32, out_features=32, bias=True)
          (bn2): BatchNorm1d(32, eps=1e-05, momentum=0.1, affine=True, track_running_stats=True)
          (shortcut): Sequential()
        )
      )
      (layer3): Sequential(
        (0): BasicBlock(
          (fc1): Linear(in_features=32, out_features=64, bias=True)
          (bn1): BatchNorm1d(64, eps=1e-05, momentum=0.1, affine=True, track_running_stats=True)
          (fc2): Linear(in_features=64, out_features=64, bias=True)
          (bn2): BatchNorm1d(64, eps=1e-05, momentum=0.1, affine=True, track_running_stats=True)
          (shortcut): Sequential(
            (0): Linear(in_features=32, out_features=64, bias=True)
            (1): BatchNorm1d(64, eps=1e-05, momentum=0.1, affine=True, track_running_stats=True)
          )
        )
        (1): BasicBlock(
          (fc1): Linear(in_features=64, out_features=64, bias=True)
          (bn1): BatchNorm1d(64, eps=1e-05, momentum=0.1, affine=True, track_running_stats=True)
          (fc2): Linear(in_features=64, out_features=64, bias=True)
          (bn2): BatchNorm1d(64, eps=1e-05, momentum=0.1, affine=True, track_running_stats=True)
          (shortcut): Sequential()
        )
      )
      (linear): Linear(in_features=64, out_features=25, bias=True)
    )
  )
  (B_matrix): ParamMatrix(
    (resnet): ResNet(
      (layer1): Sequential(
        (0): BasicBlock(
          (fc1): Linear(in_features=2, out_features=16, bias=True)
          (bn1): BatchNorm1d(16, eps=1e-05, momentum=0.1, affine=True, track_running_stats=True)
          (fc2): Linear(in_features=16, out_features=16, bias=True)
          (bn2): BatchNorm1d(16, eps=1e-05, momentum=0.1, affine=True, track_running_stats=True)
          (shortcut): Sequential(
            (0): Linear(in_features=2, out_features=16, bias=True)
            (1): BatchNorm1d(16, eps=1e-05, momentum=0.1, affine=True, track_running_stats=True)
          )
        )
        (1): BasicBlock(
          (fc1): Linear(in_features=16, out_features=16, bias=True)
          (bn1): BatchNorm1d(16, eps=1e-05, momentum=0.1, affine=True, track_running_stats=True)
          (fc2): Linear(in_features=16, out_features=16, bias=True)
          (bn2): BatchNorm1d(16, eps=1e-05, momentum=0.1, affine=True, track_running_stats=True)
          (shortcut): Sequential()
        )
      )
      (layer2): Sequential(
        (0): BasicBlock(
          (fc1): Linear(in_features=16, out_features=32, bias=True)
          (bn1): BatchNorm1d(32, eps=1e-05, momentum=0.1, affine=True, track_running_stats=True)
          (fc2): Linear(in_features=32, out_features=32, bias=True)
          (bn2): BatchNorm1d(32, eps=1e-05, momentum=0.1, affine=True, track_running_stats=True)
          (shortcut): Sequential(
            (0): Linear(in_features=16, out_features=32, bias=True)
            (1): BatchNorm1d(32, eps=1e-05, momentum=0.1, affine=True, track_running_stats=True)
          )
        )
        (1): BasicBlock(
          (fc1): Linear(in_features=32, out_features=32, bias=True)
          (bn1): BatchNorm1d(32, eps=1e-05, momentum=0.1, affine=True, track_running_stats=True)
          (fc2): Linear(in_features=32, out_features=32, bias=True)
          (bn2): BatchNorm1d(32, eps=1e-05, momentum=0.1, affine=True, track_running_stats=True)
          (shortcut): Sequential()
        )
      )
      (layer3): Sequential(
        (0): BasicBlock(
          (fc1): Linear(in_features=32, out_features=64, bias=True)
          (bn1): BatchNorm1d(64, eps=1e-05, momentum=0.1, affine=True, track_running_stats=True)
          (fc2): Linear(in_features=64, out_features=64, bias=True)
          (bn2): BatchNorm1d(64, eps=1e-05, momentum=0.1, affine=True, track_running_stats=True)
          (shortcut): Sequential(
            (0): Linear(in_features=32, out_features=64, bias=True)
            (1): BatchNorm1d(64, eps=1e-05, momentum=0.1, affine=True, track_running_stats=True)
          )
        )
        (1): BasicBlock(
          (fc1): Linear(in_features=64, out_features=64, bias=True)
          (bn1): BatchNorm1d(64, eps=1e-05, momentum=0.1, affine=True, track_running_stats=True)
          (fc2): Linear(in_features=64, out_features=64, bias=True)
          (bn2): BatchNorm1d(64, eps=1e-05, momentum=0.1, affine=True, track_running_stats=True)
          (shortcut): Sequential()
        )
      )
      (linear): Linear(in_features=64, out_features=100, bias=True)
    )
  )
)
Optimizer: Adam (
Parameter Group 0
    amsgrad: False
    betas: (0.9, 0.999)
    capturable: False
    differentiable: False
    eps: 1e-08
    foreach: None
    fused: None
    initial_lr: 0.001
    lr: 0.001
    maximize: False
    weight_decay: 0
)
StepLR: <torch.optim.lr_scheduler.StepLR object at 0x7f1d00ec7b80>
Device: cuda
Config: {
…
